exercises/models/tiny_vgg_model_v1.pth (torch, 584452 bytes, 10 tensors)

conv_block_1.0.weight f4 [64, 3, 3, 3]
0	0x3df8e72a	0.12153466
1	0xbe54540f	-0.20735191
2	0xbe3fe716	-0.18740496
3	0xbc4f2b70	-0.012644634
4	0xbe22c2b1	-0.15894581
5	0xbe35a1d7	-0.17737518
6	0xbbf947ae	-0.007607422
7	0xbd341b13	-0.043971132
8	0x3d44a58e	0.048009448
9	0x3e13ca60	0.14432669
10	0x3cd005b0	0.025393337
11	0x3e23e13b	0.16003887
12	0x3e2473d2	0.16059807
13	0x3dbdae6f	0.09261786
14	0xbdf2b635	-0.118511595
15	0xbe185476	-0.1487597
16	0x3e0f81a2	0.14014295
17	0x3daa3a35	0.08311883
18	0xbe254cc2	-0.16142562
19	0xbd981e11	-0.0742761
20	0x3e26dd77	0.1629542
21	0xbe1c5b35	-0.15269168
22	0x3d2aef73	0.041732263
23	0x3d5203ba	0.051273085
24	0xbe543983	-0.20725064
25	0x3d9ea793	0.07746806
26	0x3ca2c80b	0.019870779
27	0xbe3c0a82	-0.18363383
28	0xbe14e0df	-0.14538907
29	0xbce0a47e	-0.027422186
30	0x3e32be9c	0.17455524
31	0x3cdd251a	0.02699523
32	0xbd83c773	-0.06434526
33	0xbb26e47c	-0.0025465777
34	0xbd13a20d	-0.036043216
35	0x3e1a4fae	0.15069458
36	0xbe3feeb9	-0.18743409
37	0x3cb03d5b	0.021513632
38	0xbd04a397	-0.032382574
39	0xbd5f0a1a	-0.054452993
40	0xbd99a50d	-0.07502184
41	0xbdec2438	-0.11530346
42	0x3d37a636	0.044836245
43	0x3db97aa2	0.090565935
44	0x3de0a6f2	0.10969342
45	0x3d4cc4eb	0.049992483
46	0x3cd1e2a1	0.02562076
47	0x3e1fab17	0.1559261
48	0xbe099090	-0.13434052
49	0xbe47cc60	-0.19511557
50	0xbd931982	-0.071825996
51	0x3dbea6bb	0.09309145
52	0x3e2158a1	0.15756465
53	0x3e35fbcf	0.17771839
54	0xbe1b52c9	-0.15168299
55	0x3e2fc4c7	0.17164908
56	0x3d518a08	0.051157027
57	0x3d1e6305	0.03866865
58	0x3d71e0d5	0.059052307
59	0x3d6434d1	0.055714432
60	0x3d6fb64f	0.058523472
61	0xbd1e354e	-0.038625054
62	0x3cf4fac2	0.029904727
63	0x3e143cc5	0.14476307
64	0x3e154905	0.14578636
65	0xbe197dec	-0.14989442
66	0x3e1cfceb	0.15330856
67	0x3e0b39c7	0.13596259
68	0x3dec0e6b	0.115261875
69	0xbdb0c4be	-0.086312756
70	0xbe2c71c8	-0.16840279
71	0xbdc3068b	-0.09522732
72	0xbd088fcf	-0.03334027
73	0x3e2aced6	0.16680464
74	0xbd95f26a	-0.073216274
75	0x3de4067d	0.1113405
76	0x3e3945c6	0.18093023
77	0xbda69e98	-0.08135718
78	0x3db20215	0.08691803
79	0xbdda37c1	-0.106551655
80	0xbde57709	-0.11204345
81	0xbd895ffd	-0.067077614
82	0x3d1c48af	0.038155254
83	0x3e2755a5	0.16341265
84	0xbdf23e5c	-0.118283
85	0xbde1085b	-0.10987922
86	0x3e044573	0.12917118
87	0x3d5da4e9	0.05411235
88	0x3e0b7ce8	0.13621867
89	0x3e316aaa	0.17325845
90	0x3dd4a1f8	0.103824556
91	0xbd9d82ca	-0.07690962
92	0x3e3b1b00	0.18272018
93	0xbd882361	-0.06647373
94	0x3e249b93	0.16074972
95	0x3e29cb5a	0.16581479
96	0xbcf2ed0d	-0.02965405
97	0x3e039eff	0.12853621
98	0xbe34d627	-0.17659818
99	0xbe1fa414	-0.15589935
100	0xbdf7f277	-0.121067934
101	0xbdee9b3a	-0.11650701
102	0x3de44225	0.111454286
103	0xbdf92978	-0.12166113
104	0x3d850071	0.06494225
105	0x3ddeedf3	0.10885229
106	0xbd159f47	-0.03652885
107	0xbe24aee5	-0.16082342
108	0x3e0aa52f	0.13539575
109	0xbe0d0944	-0.13773066
110	0xbd4e54f8	-0.050374
111	0xbe23b6db	-0.15987723
112	0xbd59a6f8	-0.05313775
113	0x3dcd1707	0.10014158
114	0x3d32c0a6	0.043640755
115	0x3c781d45	0.015143697
116	0xbde50da9	-0.11184246
117	0x3e2e14b6	0.17000088
118	0xbe21eee8	-0.15813792
119	0x3e37b850	0.17941403
120	0x3e28353b	0.16426556
121	0xbde2a90c	-0.110673994
122	0xbe4258d4	-0.18979198
123	0x3d97e5ab	0.074168526
124	0x3db8f203	0.09030535
125	0x3d5e2300	0.054232597
126	0xbdf570b1	-0.11984385
127	0x3da10f80	0.078642845
128	0xbde6d29a	-0.11270638
129	0xbd654330	-0.055972278
130	0xbe3b4309	-0.1828729
131	0xbe434bd6	-0.19071898
132	0x3da11b2a	0.07866509
133	0x3dcb5c33	0.09929695
134	0xbd9455ad	-0.07242904
135	0xbe007b02	-0.12546924
136	0x3e31d290	0.1736548
137	0x3d801d3a	0.062555745
138	0x3dd075d5	0.10178725
139	0xbdbc8cab	-0.09206518
140	0xbe0e61c8	-0.13904488
141	0xbd887b0d	-0.06664095
142	0xbcf3c43a	-0.029756654
143	0xbe496b24	-0.19669777
144	0x3d82b9f6	0.063831255
145	0xbd9926e6	-0.074781224
146	0xbdad40b4	-0.08459607
147	0xbce690c9	-0.02814521
148	0x3d971928	0.07377845
149	0xbd357713	-0.04430301
150	0xbdcd9259	-0.10037679
151	0x3d71e3f6	0.05905529
152	0xbe58c4ef	-0.21168874
153	0xbe1c2b2d	-0.15250845
154	0xbdbf6d94	-0.09347072
155	0x3d8c5838	0.06852764
156	0xbe3b7d15	-0.18309434
157	0x3d8c09f3	0.06837835
158	0x3cf157ea	0.029460866
159	0x3e0528b2	0.13003805
160	0xbd9f552a	-0.07779916
161	0xbe625ee4	-0.2210651
162	0xbe25237b	-0.16126816
163	0x3d97466c	0.07386479
164	0xbcead6b4	-0.028666832
165	0xbcac5761	-0.02103776
166	0x3e290690	0.1650641
167	0x3dc25304	0.0948849
168	0x3e003d46	0.12523374
169	0xbe2c51a1	-0.16828014
170	0xbcf7205c	-0.030166797
171	0xbde8656f	-0.11347472
172	0xbe26056e	-0.16213009
173	0x3d333a96	0.043757044
174	0xbde13b6b	-0.10997661
175	0xbe1420c7	-0.14465629
176	0x3e20cfc9	0.15704264
177	0x3c3864e0	0.011254519
178	0xbe2fd00c	-0.17169207
179	0x3e3a6a11	0.18204524
180	0xbe21c8fc	-0.15799326
181	0xbe2dcc39	-0.16972436
182	0xbe3fd5c3	-0.18733887
183	0xbdd235c9	-0.10264165
184	0x3ddedfe7	0.1088255
185	0x3dcf62d9	0.101262756
186	0xbe20a7c7	-0.15689002
187	0x3dac77ee	0.08421312
188	0x3d972a70	0.07381141
189	0x3e09a22c	0.1344077
190	0xbe35a076	-0.17736992
191	0xbca50a78	-0.020146593
192	0x3e34776c	0.17623681
193	0xbca62238	-0.020279989
194	0x3c8f089c	0.01746016
195	0xbe344a24	-0.17606407
196	0xbdd37f75	-0.10327045
197	0x3e101384	0.14069945
198	0xbe1d2609	-0.1534654
199	0x3e3dac77	0.18522821
200	0xbdb11e97	-0.08648413
201	0xbd038c19	-0.03211603
202	0xbd3afe82	-0.045652874
203	0xbe1bbf77	-0.15209757
204	0xbd270084	-0.040771976
205	0x3e2c52ff	0.16828535
206	0x3dd3db83	0.10344603
207	0xbdf5c067	-0.119995885
208	0xbe20f253	-0.1571744
209	0xbe06a553	-0.13149004
210	0x3d235fd0	0.039886296
211	0xbdac03bb	-0.08399149
212	0xbd8f6aeb	-0.07002815
213	0x3d3a6749	0.045508657
214	0x3df1223e	0.11774109
215	0x3e2b6f1f	0.16741608
216	0x3e13fb04	0.14451224
217	0xbe321cea	-0.17393842
218	0x3e03f4ce	0.12886354
219	0x3d098fee	0.033584528
220	0x3d9448de	0.07240461
221	0xbe4586d3	-0.19289713
222	0x3deddda8	0.11614543
223	0xbe2bf7ee	-0.16793796
224	0xbe52ab0e	-0.20573065
225	0xbdeacb22	-0.11464526
226	0xbd3998ca	-0.045311727
227	0xbdb5e814	-0.08882156
228	0x3e14d842	0.14535621
229	0x3d7b7f81	0.061400894
230	0xbe307aa1	-0.17234279
231	0xbdc74529	-0.09729988
232	0xbe0349fe	-0.12821195
233	0x3e20a47a	0.15687743
234	0xbc0978f5	-0.008390655
235	0x3e1dbeee	0.15404865
236	0xbe509385	-0.20368774
237	0xbe31a9a3	-0.17349868
238	0x3e1813ee	0.14851353
239	0xbdd6f378	-0.10495657
240	0x3dbd6adf	0.092489
241	0x3dfcf195	0.123507656
242	0xbcc2cbe5	-0.023778865
243	0xbe3635d2	-0.17793968
244	0xbe25a8c1	-0.16177656
245	0x3dc9768f	0.098370664
246	0x3e167ef4	0.14696866
247	0xbdd76187	-0.10516649
248	0xbcd17a09	-0.025570886
249	0x3e264b4a	0.16239658
250	0xbd662c56	-0.056194626
251	0xbe379916	-0.17929491
252	0x3d243379	0.04008815
253	0xbce8fdbd	-0.028441304
254	0xbcf10da2	-0.029425446
255	0x3e27a28c	0.163706

conv_block_1.0.bias f4 [64]
0	0x3cb34223	0.021882122
1	0x3c14977c	0.00906932
2	0xbde3c664	-0.111218244
3	0xbe2fe4db	-0.17177145
4	0x3e1fb653	0.15596895
5	0x3e25e641	0.16201116
6	0x3e3f3eda	0.1867632
7	0xbd53fc8e	-0.051754527
8	0xbe4dd469	-0.2010056
9	0xbd26a920	-0.040688634
10	0x3e54a8f2	0.20767573
11	0x3df0baa3	0.11754348
12	0x3d294901	0.041329388
13	0x3d2fb2f4	0.042895272
14	0xbc95c3b6	-0.018281799
15	0x3df479d3	0.119372986
16	0x3df33d1c	0.1187689
17	0x3e305ef3	0.1722372
18	0xbe311490	-0.17293
19	0xbc70b863	-0.014692399
20	0xbe01b708	-0.12667477
21	0x3e29fef8	0.16601169
22	0xbdd9e323	-0.10639026
23	0xbd7672ef	-0.060168203
24	0x3bf6e154	0.0075341854
25	0xbdb5df26	-0.08880453
26	0xbcdb776e	-0.026790347
27	0x3c8cb83d	0.017177695
28	0x3dd8f883	0.10594275
29	0x3def935c	0.116980284
30	0x3c76f246	0.015072411
31	0xbd65c6f7	-0.05609795
32	0xbe081d49	-0.13292421
33	0xbdb0bbc6	-0.08629565
34	0xbd41653f	-0.047215696
35	0xbd3c8de9	-0.046033774
36	0x3da060f5	0.07830993
37	0x3df0a9d1	0.1175114
38	0x3dc9b491	0.098488934
39	0x3cd8dd4a	0.026472706
40	0xbbf47fd8	-0.007461529
41	0x3dc19882	0.09452917
42	0x3d89d4f3	0.0673007
43	0x3c2d66d1	0.010583595
44	0x3da8c100	0.08239937
45	0x3e190f38	0.14947212
46	0xbdbd22a7	-0.09235125
47	0x3cdfe485	0.027330646
48	0xbdb0421e	-0.08606361
49	0xbdd600a8	-0.10449344
50	0x3e2ca844	0.16861063
51	0x3e0de609	0.13857283
52	0xbe49bed6	-0.19701704
53	0xbcd6c81f	-0.026218472
54	0xbde794c5	-0.113076724
55	0xbc7202d6	-0.014771184
56	0xbe2f0822	-0.17092946
57	0xbde31db7	-0.11089652
58	0xbe389d48	-0.18028748
59	0xbe18ce41	-0.1492243
60	0x3cffd2cf	0.031228451
61	0xbe1bd325	-0.15217264
62	0xb96c9a4c	-0.00022564194
63	0xbe2aacb6	-0.16667446

conv_block_1.2.weight f4 [64, 64, 3, 3]
0	0xbc272661	-0.010202021
1	0xbca9c896	-0.02072553
2	0xbcd39738	-0.025828943
3	0xbc82b1ae	-0.015953865
4	0xbbc8fb6a	-0.0061334865
5	0xbc606142	-0.013695063
6	0x3b0967d8	0.0020966437
7	0x3b04d447	0.0020268129
8	0xbc5e9505	-0.013585334
9	0x3e153f3f	0.14574908
10	0x3dbcc0db	0.09216472
11	0x3d8083ce	0.0627514
12	0x3dce9d5c	0.10088608
13	0x3d92e75c	0.071730345
14	0x3c6bc43b	0.014390047
15	0x3d9f181e	0.07768272
16	0xbc62adf5	-0.01383542
17	0x3ba20f85	0.0049456977
18	0xbbd7af8a	-0.006582205
19	0x3d1e8cd1	0.03870851
20	0x3d1f9a8f	0.038965758
21	0x3cdeaa53	0.027180826
22	0x3d71114d	0.05885439
23	0x3d5670a5	0.05235352
24	0x3d976ef6	0.07394211
25	0x3d7583a5	0.05994
26	0x3d7d55de	0.061849467
27	0x3d990157	0.07470959
28	0x3dc78c17	0.09743517
29	0x3d8bd1b8	0.0682711
30	0x3e0dc63e	0.13845155
31	0x3dd69ac3	0.10478737
32	0x3e0cb936	0.13742527
33	0x3daadc0b	0.08342751
34	0x3da35407	0.07975011
35	0x3df145a7	0.11780863
36	0xbb987197	-0.004652213
37	0xbcca7591	-0.024714263
38	0x3c4f5bf6	0.012656203
39	0x3ba6bf3a	0.005088714
40	0x3c65c1eb	0.014023284
41	0x3be12a89	0.0068715257
42	0x3c2ffc14	0.010741252
43	0x3c248b54	0.010042984
44	0x3bbb4ed4	0.005716184
45	0x3db1bc5d	0.086785056
46	0x3d982c19	0.07430286
47	0x3cc29771	0.023753854
48	0x3d9a286d	0.07527242
49	0x3cbe6898	0.023243234
50	0x3d213606	0.03935816
51	0x3d95c9fd	0.07313917
52	0x3dcf5e9a	0.10125466
53	0x3d465ece	0.048430257
54	0x3d3d5e95	0.04623278
55	0x3b95e99a	0.0045749666
56	0x3b3978b8	0.0028300714
57	0x3b8502e3	0.004059182
58	0x3c1e97c2	0.009679737
59	0x3cd75529	0.026285725
60	0x3c91c0cd	0.01779213
61	0x3d4696bc	0.048483595
62	0x3d3847af	0.044990238
63	0x3dcf6e71	0.10128487
64	0x3dbb8463	0.0915611
65	0x3ca898b0	0.02058062
66	0x3d741306	0.059588455
67	0x3d1d9a6d	0.03847735
68	0xbd637fd8	-0.055541843
69	0xbcae3b83	-0.021268612
70	0xbd909aa1	-0.07060743
71	0xbd572ebd	-0.052534807
72	0xbbabf5b9	-0.0052477983
73	0x3ce1d898	0.0275691
74	0x3d3664f4	0.04452987
75	0xbc16a3f1	-0.00919436
76	0x3d00ae80	0.031416416
77	0x3c804804	0.01565934
78	0xbcb91405	-0.022592554
79	0x3b8af7da	0.004240972
80	0x3c865086	0.016395818
81	0x3ce5e6b6	0.028064113
82	0x3d5ee224	0.054414883
83	0x3d163ae2	0.03667725
84	0x3d05acac	0.032635376
85	0x3cb76e60	0.022391498
86	0x3d8a1aa9	0.06743366
87	0x3d9a67b2	0.075393096
88	0x3cb23f44	0.021758683
89	0x3d8e12fc	0.06937215
90	0x3ca0d7cd	0.019634152
91	0x3d3ffed2	0.046873875
92	0x3b910131	0.004425191
93	0x3cf1d2ea	0.029519517
94	0x3d2ab103	0.041672718
95	0x3ca79fb4	0.020461895
96	0xbb987ab8	-0.004653301
97	0xbb32b432	-0.002726805
98	0x3d46a10d	0.048493434
99	0x3d6f9b98	0.058497995
100	0x3c9b60bf	0.01896703
101	0x3cab7f21	0.020934643
102	0x3c8f8fdf	0.017524658
103	0x3da31a3b	0.079639874
104	0x3d77c2c1	0.060488466
105	0x3cb19b3d	0.021680469
106	0x3cfeceb3	0.031104421
107	0x3d3126fa	0.04325006
108	0xbc929d33	-0.017897224
109	0xbbf1543f	-0.0073647792
110	0x3bec96f5	0.007220144
111	0x3c4177dc	0.011808362
112	0x3d0c19dc	0.03420435
113	0x3cb056e0	0.0215258
114	0xbd3117ea	-0.043235697
115	0xbd389c5c	-0.04507099
116	0xbc8e1922	-0.017345969
117	0x3c99cb95	0.018773833
118	0x3c996954	0.018726982
119	0x3beca7be	0.007222145
120	0xbc5f62ea	-0.013634423
121	0xba35b5b0	-0.00069316756
122	0x3d327cd1	0.043576065
123	0x3d24050a	0.040043868
124	0x3c49b289	0.0123106325
125	0x3d10ba37	0.03533384
126	0x3dd2f518	0.10300654
127	0x3d10813d	0.0352795
128	0x3d737460	0.059437156
129	0x3d6483a3	0.0557896
130	0xbc7d99c5	-0.015478556
131	0x3d0c89f6	0.034311257
132	0x3ce377e2	0.027767126
133	0xbd023f21	-0.031798486
134	0x3c1b17e2	0.009466143
135	0x3d5bd33a	0.05366824
136	0x3d34c034	0.04412861
137	0xbc77b79f	-0.015119462
138	0x3d3502f6	0.044192277
139	0xbab151ec	-0.0013528443
140	0x3d3f22af	0.046663936
141	0x3c3442da	0.011002267
142	0x3d2f2c6a	0.042766966
143	0x3d24410a	0.04010109
144	0xbc885fae	-0.016647186
145	0xbb0bd291	-0.0021335224
146	0x3ae23882	0.0017259272
147	0xbcc8e0bf	-0.02452123
148	0xbc875c91	-0.016523631
149	0xbd4ce2ce	-0.050020985
150	0x3c1a0c41	0.009402336
151	0x3c574f1f	0.0131414225
152	0xbcbaaa09	-0.022786157
153	0x3cef3828	0.029201582
154	0x3d1600ad	0.03662174
155	0x3d337ce3	0.043820273
156	0x3cc25255	0.0237209
157	0x3daa17db	0.08305331
158	0x3d93b355	0.07211939
159	0x3d5c3d32	0.053769298
160	0x3d8641eb	0.065555416
161	0x3d4ce106	0.050019287
162	0xbd290bae	-0.041270904
163	0x3aad122b	0.0013204267
164	0xbb388feb	-0.0028161954
165	0xbd098f07	-0.033583667
166	0x3c9116be	0.01771104
167	0xbd0ed546	-0.034871362
168	0x3ce0cd3e	0.027441617
169	0x3cfdb178	0.030968413
170	0x3d210f10	0.039321005
171	0x3c5a0b31	0.013308332
172	0x3d19aa2c	0.037515804
173	0x3ba7539a	0.0051064016
174	0x3d7ddcb8	0.061978072
175	0x3cb1bd2f	0.021696655
176	0x3d542476	0.051792584
177	0xbaa85e3f	-0.001284547
178	0x3c761b04	0.015021089
179	0x3d0c9e79	0.03433082
180	0xbd6804ad	-0.056645084
181	0xbc8e11ab	-0.01734241
182	0xbcfbe724	-0.030749865
183	0xbca57333	-0.020196533
184	0x3c0d877a	0.008638257
185	0xbd2331d1	-0.03984243
186	0xbd4b7011	-0.04966742
187	0xbd4af2af	-0.049547847
188	0xbd3ce704	-0.04611875
189	0x3dc706e0	0.09718108
190	0x3d2fbb82	0.04290343
191	0x3d27580d	0.040855456
192	0x3dd5ad81	0.10433484
193	0x3dbe1e80	0.09283161
194	0x3d0335c7	0.032033708
195	0x3d038492	0.03210885
196	0x3d67aded	0.056562353
197	0x3c865e75	0.016402462
198	0x3ccb0dd7	0.024786873
199	0xbc1301f2	-0.008972632
200	0x3d5594d7	0.052143898
201	0x3d051406	0.0324898
202	0x3d83b53c	0.06431052
203	0x3ca79213	0.020455396
204	0x3d19a92b	0.037514847
205	0x3d838c1e	0.064232096
206	0xbc3ff15b	-0.0117152585
207	0x3ccd8df9	0.025092112
208	0x3c42e0c5	0.01189441
209	0x3b2fa05b	0.002679846
210	0xbbdf0678	-0.006806191
211	0xbc658f0d	-0.014011157
212	0xbc9cc31c	-0.019136004
213	0xbb9c8aa5	-0.00477727
214	0x3cd80d5b	0.026373556
215	0xbcde36c8	-0.027125731
216	0x3cdbff01	0.026854994
217	0xbc2473da	-0.010037387
218	0x3d3c0c22	0.04591001
219	0x3cfaaacc	0.03059902
220	0x3d0e1261	0.034685496
221	0xb9b38d99	-0.0003424704
222	0x3aeed98b	0.0018222792
223	0x3d0f38a0	0.03496611
224	0x3d1101f5	0.035402257
225	0x3cb23471	0.021753522
226	0xbc5a6c11	-0.013331429
227	0x3d36d01e	0.04463207
228	0xbcf4adc4	-0.029868014
229	0xbc22905f	-0.009922116
230	0xbb9f56f4	-0.0048626605
231	0xbc5f1308	-0.013615377
232	0x3c131f17	0.00897958
233	0xbc825f22	-0.015914503
234	0xbd2f4c6e	-0.0427975
235	0xbcefee02	-0.029288296
236	0xbd41c8e8	-0.04731074
237	0xbd3a66ea	-0.045508303
238	0xbda5ef5e	-0.08102296
239	0xbd9399fe	-0.07207106
240	0xbd92e772	-0.07173051
241	0xbb649244	-0.003487722
242	0xbd5ed6f8	-0.05440423
243	0xbd1d1040	-0.038345575
244	0xbd04f0e5	-0.032456297
245	0xbcace896	-0.021107
246	0x3c7cf01c	0.015438106
247	0x3c1e9e94	0.009681363
248	0xbd4a1073	-0.049332093
249	0x3cf7cc25	0.03024871
250	0x3c1a62e2	0.00942299
251	0x3c92f658	0.017939731
252	0x3c02cb72	0.007983075
253	0xbc6592fd	-0.0140120955
254	0x3ae35010	0.0017342586
255	0x3c85918b	0.016304752

conv_block_1.2.bias f4 [64]
0	0xbcc37d3e	-0.023863431
1	0xbc808404	-0.01568795
2	0x3ce9ffc9	0.02856435
3	0xbce1865d	-0.02752989
4	0x3c043d69	0.008071282
5	0xbd1a7bc1	-0.037715677
6	0xbd6a71cd	-0.057237435
7	0x3cd0c2c5	0.025483498
8	0xbd255510	-0.040364325
9	0xbc44bf28	-0.012008466
10	0x3c5b9e3b	0.013404424
11	0x3b38ac46	0.0028178855
12	0xbd472750	-0.048621476
13	0xbc45af70	-0.012065753
14	0xbd144619	-0.036199663
15	0xba8f3506	-0.0010925836
16	0xbce329dc	-0.027729921
17	0x3c903511	0.017603429
18	0xbd67dbe8	-0.056606203
19	0xbd6059f9	-0.054773305
20	0xbd4bd210	-0.049760878
21	0xbd067654	-0.03282769
22	0xbd159056	-0.036514603
23	0x3c5b3e0f	0.013381495
24	0xbd028c66	-0.031872176
25	0xbd06758a	-0.032826938
26	0x3bff8d86	0.0077988533
27	0xbc4248d0	-0.01185818
28	0xbd28b947	-0.04119232
29	0xbc27b86a	-0.010236839
30	0xbd28e51c	-0.04123412
31	0x3b56bb8a	0.003276559
32	0x3b0179ef	0.0019756516
33	0x3be9ccae	0.0071349954
34	0x3cf1747d	0.029474491
35	0xbcd79b5a	-0.026319195
36	0xbb2d0155	-0.00263985
37	0xbccd8a8a	-0.025090475
38	0x3a827ba8	0.0009955065
39	0xbc222ca1	-0.009898336
40	0xbd439866	-0.04775276
41	0xbd3d6786	-0.046241306
42	0x3c9266fd	0.017871374
43	0xbc92d007	-0.01792146
44	0xbd37fec4	-0.044920698
45	0xbd8630ce	-0.065522775
46	0x3b9bb386	0.0047516255
47	0xbd060f08	-0.03272918
48	0x3c1c4a3c	0.009539183
49	0xbd71522c	-0.058916256
50	0xbca41d30	-0.020033449
51	0x3c691555	0.014226277
52	0xbc13a2e7	-0.009011007
53	0x3c97ffeb	0.018554648
54	0xbd342032	-0.043976016
55	0x3cd1e923	0.025623864
56	0xbd237bc5	-0.039912958
57	0x3c627e59	0.013824069
58	0xbca3677b	-0.019946804
59	0xbd51ed59	-0.051251743
60	0xbd49ec3a	-0.04929755
61	0xbca5ac1c	-0.02022367
62	0xbcedeed3	-0.029044544
63	0xbd292f18	-0.041304678

conv_block_2.0.weight f4 [64, 64, 3, 3]
0	0x3a2c1cb0	0.0006565554
1	0xbabc9ed7	-0.00143906
2	0xbce2b96b	-0.027676305
3	0xbc989f83	-0.018630749
4	0x3c946570	0.018114775
5	0xbcadd876	-0.02122138
6	0xbd2482db	-0.040163856
7	0xbd681a16	-0.056665502
8	0xbbb324a0	-0.0054670125
9	0xbb50a312	-0.0031835479
10	0xbcc27238	-0.023736104
11	0xbcac476f	-0.021030156
12	0x3d6d5dea	0.05795089
13	0xbcb3a633	-0.021929836
14	0x3d67c561	0.05658472
15	0x3cce18bd	0.02515828
16	0x3d259562	0.040425666
17	0xbc67b68a	-0.014142642
18	0x3bab7c10	0.0052332953
19	0x3c9f0370	0.019410819
20	0xbd41a7b7	-0.047279086
21	0x3ceaea9f	0.02867633
22	0x3b0ed874	0.0021796497
23	0xbb317a11	-0.0027080814
24	0xbc041f18	-0.008064054
25	0xbc5a3089	-0.013317236
26	0xbc9ff1d1	-0.019524487
27	0xbc6028ac	-0.013681572
28	0xba9d8cd7	-0.0012020123
29	0x3d1703bb	0.036868792
30	0x3d25e75f	0.040503856
31	0x3d4200da	0.047364093
32	0xbce5bff1	-0.028045626
33	0x3c47f86f	0.012205227
34	0x3bdde61b	0.0067718155
35	0xbcd37122	-0.025810782
36	0xbc74f240	-0.014950335
37	0x3cae6e14	0.021292724
38	0x3d085618	0.03328523
39	0xbbc65d93	-0.0060536354
40	0xbd376438	-0.04477331
41	0x3c7a7e78	0.015288942
42	0xbd17c63c	-0.037054285
43	0xbcc2e57c	-0.023791067
44	0xbcd42311	-0.025895627
45	0xbbb6d6db	-0.005579812
46	0xbcddc7bf	-0.027072785
47	0x3ca625b7	0.020281656
48	0x3c752a22	0.0149636585
49	0xbd4c4eb7	-0.049879756
50	0xbd2cc546	-0.042180322
51	0xbd7406a3	-0.05957664
52	0xbd7126d6	-0.058874927
53	0xbd40e8ab	-0.04709689
54	0xbce052b6	-0.02738319
55	0x3d0544f3	0.03253646
56	0xbca8d3d3	-0.020608818
57	0x3cade3cb	0.021226784
58	0x3b433b6b	0.0029790055
59	0x3ca911bb	0.020638337
60	0xbd1b3d83	-0.03790046
61	0x3cfa0580	0.0305202
62	0x3a859bd6	0.0010193537
63	0xbced10d5	-0.02893869
64	0x3c733279	0.014843577
65	0xbd1514a5	-0.03639664
66	0xbc294d6c	-0.0103334
67	0x3cc42fef	0.023948638
68	0xbc370f5c	-0.011173096
69	0xbcae0315	-0.021241704
70	0xbc4cec10	-0.012507454
71	0xbced2267	-0.028947068
72	0x3bffb5b4	0.007803643
73	0x3c967b66	0.018369388
74	0xbd30b8ed	-0.04314511
75	0x3d0f17da	0.034934856
76	0xbd05dfbd	-0.032684077
77	0xbcf343ed	-0.029695475
78	0xbb9acb96	-0.0047239764
79	0x3cbbd232	0.022927377
80	0xbd318b6e	-0.04334586
81	0xbcefcf6a	-0.029273707
82	0xbcc90b97	-0.02454166
83	0x3c2b79b9	0.010466033
84	0x3cb8f244	0.022576459
85	0xbce2666e	-0.027636733
86	0xbcbca5c2	-0.023028258
87	0x3d0b6b2d	0.034037758
88	0x3c5d6685	0.013513212
89	0xbce058d4	-0.027386107
90	0x3cd22696	0.025653165
91	0xbc8b4f0e	-0.01700547
92	0x3d18ce42	0.037306078
93	0x3c2051f8	0.009785168
94	0x3d569746	0.05239036
95	0x3b8b7390	0.0042557195
96	0x3c8dec9b	0.017324736
97	0x3d692b93	0.05692632
98	0x3b79eac5	0.0038134318
99	0xbd0a22f5	-0.033724744
100	0x3d732f5b	0.059371334
101	0x3b4bdac0	0.0031105727
102	0x3c9fa862	0.01948947
103	0x3c15f357	0.009152255
104	0x3d716625	0.058935303
105	0x3d169830	0.03676623
106	0xbc6732b5	-0.014111211
107	0x3d0b7f40	0.034056902
108	0xbd0e3a0a	-0.03472332
109	0xbb93f5d0	-0.004515387
110	0xbce15869	-0.027507978
111	0xbc004b78	-0.007830493
112	0xbd40b514	-0.04704769
113	0x3cb01c04	0.021497734
114	0xbd443e7a	-0.047911145
115	0xbb7dc99d	-0.0038724907
116	0xbaad494e	-0.0013220699
117	0xbbb6ba33	-0.005576396
118	0xbcac95c8	-0.021067515
119	0xbcaa3574	-0.020777442
120	0xbb6bc870	-0.0035977624
121	0x3d2a80e4	0.041626826
122	0xbd63a86f	-0.055580553
123	0xbcb87950	-0.022518784
124	0x3cd2adf0	0.025717705
125	0x3d594289	0.05304197
126	0x3d535da8	0.05160299
127	0x3c96c2a1	0.018403353
128	0x3c8e0f48	0.017341271
129	0xbcc79eee	-0.024367776
130	0x3d4fa8c3	0.050698053
131	0x3d53ea25	0.05173697
132	0xbca092f3	-0.01960132
133	0xbc2c6bc1	-0.010523737
134	0xbd73c773	-0.05951638
135	0xbc9d0480	-0.019167185
136	0xbc66110d	-0.014042151
137	0xbd314956	-0.04328283
138	0x3d102995	0.035195906
139	0x3bb89854	0.0056333933
140	0xbc06a9b0	-0.008219168
141	0xbb9321d5	-0.004490117
142	0x3ce76683	0.028247124
143	0x3c3f933f	0.011692821
144	0xbc856b97	-0.016286654
145	0x3c2c8822	0.0105305035
146	0xbb2a97cb	-0.0026030417
147	0x3d564510	0.052311957
148	0x3cdfefe3	0.027336067
149	0x3d510f97	0.05104026
150	0xbc874023	-0.016510075
151	0x3d6f2e70	0.058393896
152	0xbc124a2e	-0.008928819
153	0xbc2e3fe7	-0.010635353
154	0x3cbe3996	0.023220818
155	0xbaad3922	-0.001321588
156	0x3cf265c3	0.02958954
157	0x3ca88aa1	0.020573916
158	0x3d274df2	0.04084582
159	0x3d2c9b36	0.04214021
160	0x3bfbe8d2	0.0076876665
161	0x3c11032d	0.008850855
162	0xbd085928	-0.03328815
163	0xbca2830e	-0.019837882
164	0x3d0946f3	0.033514928
165	0x3ce8c9bb	0.028416505
166	0x3c8de433	0.017320728
167	0x3d1cad6e	0.038251333
168	0xbcbb5f33	-0.022872543
169	0xbc5a6f5b	-0.013332213
170	0xbb67632b	-0.0035306911
171	0x3c6b587d	0.014364359
172	0x3d305842	0.04305292
173	0x3d21c45e	0.03949391
174	0x3902075b	0.00012400506
175	0x3d5ee3e2	0.054416545
176	0x3c41b4f8	0.0118229315
177	0x3c85db44	0.016339906
178	0x3d0412c7	0.03224447
179	0x3cdf5b7c	0.027265303
180	0xbb8c69cb	-0.0042850724
181	0x3cef8870	0.029239863
182	0xba2b1aab	-0.0006527106
183	0xbc8a2533	-0.016863441
184	0xbb386256	-0.0028134785
185	0xbcfa220b	-0.030533811
186	0xbc4672c0	-0.0121123195
187	0x3b82856b	0.00398319
188	0xbd1222e2	-0.035677798
189	0xbc8ca876	-0.017170172
190	0xbd03d800	-0.032188416
191	0x3cc1b452	0.023645554
192	0x3c078c3f	0.008273183
193	0x3c60b15d	0.013714162
194	0xbcd1cb39	-0.0256096
195	0x3cc6d83e	0.024273034
196	0x3d52f4f8	0.05150315
197	0xbb3d8cb7	-0.0028922984
198	0xbc4cb70b	-0.012494813
199	0xbc3a09df	-0.0113548925
200	0x3bc2690a	0.005932932
201	0x3d05f97d	0.032708634
202	0x3a8e9870	0.001087917
203	0xbbf24a48	-0.007394109
204	0xbcd11895	-0.025524417
205	0xbcbd7236	-0.02312575
206	0x3d28c125	0.041199822
207	0x3d0dac68	0.034588248
208	0xbcade707	-0.021228326
209	0xbd3832c8	-0.044970304
210	0x3cb9f34f	0.022699026
211	0x3cb3b764	0.021938033
212	0xbc3210b2	-0.010868238
213	0xbd09e68d	-0.033667136
214	0xbb9b3543	-0.004736574
215	0x3b5acf57	0.0033387744
216	0x3cf08da8	0.029364422
217	0x3d07af02	0.033125885
218	0xbd3f8dc1	-0.046766046
219	0x3c8c9161	0.017159166
220	0xbc0a744d	-0.00845058
221	0xbd239724	-0.03993906
222	0x3d2b46ab	0.04181544
223	0xbc45a063	-0.012062165
224	0xbc45b064	-0.012065981
225	0x3c68f378	0.014218204
226	0x3c9f8801	0.019474031
227	0xbd12ea6a	-0.035868086
228	0xbd20d006	-0.039260887
229	0xbd41ca1d	-0.04731189
230	0xbd2b1e9c	-0.04177724
231	0xbcb97594	-0.022639073
232	0xbd18c209	-0.03729442
233	0xbd723183	-0.05912925
234	0xbcb5f88b	-0.022213241
235	0xbbc69182	-0.0060598264
236	0x3cc3a3f3	0.023881888
237	0xbca6ca38	-0.020360097
238	0x3c80ce39	0.015723335
239	0x3d3a17da	0.045432903
240	0x3b9cab35	0.0047811517
241	0xbc1155ac	-0.008870523
242	0x3d0dabfd	0.03458785
243	0xbd2be2e4	-0.041964427
244	0x3c065482	0.008198859
245	0xbc90810a	-0.017639656
246	0xbc8e28b9	-0.017353402
247	0xbcea175f	-0.028575597
248	0xbc89ed21	-0.016836705
249	0x3c4405bd	0.011964259
250	0x3c8130da	0.015770365
251	0x39d8d434	0.00041356834
252	0xbc3888a6	-0.011263048
253	0xbd4e58ae	-0.05037754
254	0x3c721025	0.014774357
255	0xbc6c5bab	-0.014426152

conv_block_2.0.bias f4 [64]
0	0x3cac7c2d	0.021055305
1	0xbd5053e0	-0.05086124
2	0xbceff44b	-0.029291293
3	0xbd58289d	-0.052773107
4	0xbc9614e4	-0.018320508
5	0xbcc5dbf9	-0.024152743
6	0xbb193aeb	-0.0023381065
7	0xbd71a1a2	-0.058992036
8	0xbd2875f9	-0.041128132
9	0xbd61ed8d	-0.055158187
10	0xbcac9e29	-0.02107151
11	0xbcaaaca6	-0.020834278
12	0xbc73b494	-0.014874596
13	0xbbe8ba21	-0.0071022664
14	0xbd0a9b16	-0.033839308
15	0x3d577f08	0.05261138
16	0x3c466d01	0.0121109495
17	0xbc1012c2	-0.008793535
18	0x3d0f883a	0.035042025
19	0xbd172350	-0.03689891
20	0xbd4c1ab5	-0.049830157
21	0xbce082a5	-0.027406046
22	0x3a9b176c	0.0011832542
23	0xbb9e682b	-0.004834195
24	0xba421e23	-0.00074050034
25	0xbd47018c	-0.04858546
26	0x3c6b4de5	0.014361833
27	0xbd0bd456	-0.034138046
28	0x3bab2402	0.0052227983
29	0xbd2c51f3	-0.04207034
30	0xbb629e23	-0.003457912
31	0xbc61ec0f	-0.013789191
32	0xbd3f6aa4	-0.04673256
33	0x3c1bb930	0.009504601
34	0xbcab4eb2	-0.020911548
35	0xbcbb3b8c	-0.022855543
36	0xbce69f67	-0.02815218
37	0x3c94beb4	0.01815734
38	0x3b65d4aa	0.0035069385
39	0xbcb175f4	-0.02166269
40	0xbcd6831b	-0.026185563
41	0xbd5345f8	-0.0515804
42	0x3c3aaaaf	0.011393233
43	0x3c8ded72	0.017325137
44	0xbd02391a	-0.031792738
45	0xbcbb40fa	-0.022858132
46	0x3bd4b301	0.0064910655
47	0x3bf9d1b9	0.007623878
48	0x3bfe9d91	0.007770248
49	0x3bc4f94f	0.006011165
50	0xbd5f7987	-0.054559257
51	0x3b911a3d	0.0044281767
52	0x3cb3eed4	0.021964468
53	0xbd5814ba	-0.05275414
54	0xbbe9cf1e	-0.007135286
55	0x3c83856f	0.016054837
56	0xbd4beff3	-0.04978938
57	0xbd2898db	-0.0411614
58	0xbd042cea	-0.032269396
59	0x3cae5d16	0.021284621
60	0x3c0460dd	0.008079735
61	0xbd02a456	-0.031895004
62	0xbcf5f937	-0.030026061
63	0x3c8a2128	0.016861513

conv_block_2.2.weight f4 [64, 64, 3, 3]
0	0xbd2112e2	-0.03932465
1	0xbc6d27a5	-0.014474784
2	0xbd053b48	-0.032527238
3	0x3c1c2536	0.009530356
4	0xbd3033d0	-0.043018162
5	0x3b0f400c	0.0021858243
6	0xbc0c71fa	-0.008572096
7	0xbcd381d9	-0.025818752
8	0x3cd9404c	0.026519917
9	0xbbc2cbd6	-0.0059447093
10	0xbcc01108	-0.023445621
11	0x3d509758	0.050925583
12	0xbd550de7	-0.05201521
13	0x3ce5ef2c	0.028068148
14	0xbb788925	-0.0037923541
15	0xbacb749f	-0.0015522427
16	0x3c58eadb	0.013239588
17	0x3d21f699	0.039541814
18	0x3be87e71	0.007095151
19	0xbcda96ee	-0.026683297
20	0x3b09715a	0.0020972104
21	0x3aa59578	0.0012633046
22	0xbd1fd30e	-0.039019637
23	0x3cba1e34	0.02271948
24	0x3c87bdec	0.016570054
25	0x3c057613	0.008145827
26	0x3c0caea4	0.008586559
27	0x3c0d5687	0.008626587
28	0x3d349f8e	0.044097476
29	0x3b1811e2	0.0023204018
30	0x3ce74527	0.028231217
31	0xbc30a269	-0.010780909
32	0x3d2849b4	0.041085914
33	0xbad8d23c	-0.0016542147
34	0x3cddb94e	0.0270659
35	0xbc902f73	-0.01760075
36	0xbd590bc5	-0.05298974
37	0x3cc4910d	0.023994947
38	0xbc7bb662	-0.015363308
39	0xbca1cafa	-0.019750107
40	0x3bd45126	0.0064794
41	0x3c7b3c25	0.015334164
42	0xbce45d53	-0.027876532
43	0xbcc11ca1	-0.023573222
44	0x3c3c79bd	0.011503634
45	0xbc7b97c6	-0.01535601
46	0xbc879c3d	-0.016553992
47	0xbc994cd1	-0.018713387
48	0xbd60636d	-0.05478232
49	0x3c8ef137	0.017449005
50	0xbd5b4fbc	-0.053542838
51	0xbd5a76fd	-0.053336132
52	0xbcf24767	-0.029575063
53	0xbd50ec60	-0.051006675
54	0x3b3d30b2	0.0028868136
55	0xbd3b0add	-0.045664657
56	0x3c818d36	0.015814405
57	0x3cd94b95	0.026525298
58	0xbd40d42f	-0.047077354
59	0xbc3549cf	-0.011064961
60	0xbd007abb	-0.031367045
61	0xbd0254b7	-0.03181907
62	0x3c785d52	0.015158968
63	0xbcda0dfd	-0.026617998
64	0xbd492876	-0.049110852
65	0x3cc5cb08	0.024144664
66	0xbaa5fe89	-0.0012664358
67	0xbbc48e7f	-0.005998432
68	0xbc18c91b	-0.009325291
69	0xbccd9fc2	-0.025100593
70	0xbd2da6b7	-0.04239532
71	0xbc7e8417	-0.015534422
72	0x3b380dfc	0.0028084507
73	0x3b37d800	0.002805233
74	0xbd208f21	-0.039199
75	0x3c83e8d1	0.016102226
76	0x3b77dedc	0.0037822044
77	0xbd4713db	-0.04860292
78	0xbd48f0a3	-0.049057614
79	0xbccb0fa7	-0.024787737
80	0x3ce4217f	0.027848003
81	0xbd67d703	-0.056601536
82	0xbca79893	-0.020458495
83	0x3aaf4b82	0.0013373944
84	0xbd6872cc	-0.056750104
85	0xbcd7077c	-0.026248686
86	0xbc8205f7	-0.015871985
87	0xbd526c5c	-0.05137287
88	0x3c9e1b7a	0.019300211
89	0x3ca0a638	0.01961051
90	0xbd1f11d6	-0.03883537
91	0x3c0dd790	0.008657351
92	0xbc916be1	-0.017751636
93	0x3ca224c0	0.019792914
94	0xbd37f373	-0.044909906
95	0x3ca8821c	0.020569853
96	0xbc045eef	-0.008079275
97	0x3c4136ba	0.011792833
98	0x3c360446	0.011109417
99	0x3d45f8ac	0.048332855
100	0xbd40b719	-0.047049616
101	0x3c89a24c	0.016801022
102	0xbcd0f40d	-0.025506997
103	0xbd031fa4	-0.032012597
104	0xbcfb9a69	-0.030713277
105	0xbcfa5260	-0.030556858
106	0xbbde43ba	-0.006782976
107	0xbc45a900	-0.0120642185
108	0x3b30f1a7	0.0026999505
109	0xbd4a8dc5	-0.04945161
110	0xbc1c9f1c	-0.009559419
111	0xbd303b2c	-0.04302518
112	0xbc3577b0	-0.011075899
113	0xbcbd1ee1	-0.023086013
114	0x3c5113ac	0.012761038
115	0xbc8395de	-0.016062673
116	0xbcd9a1f6	-0.026566487
117	0x3c538245	0.012909477
118	0xbd4aa72f	-0.049475845
119	0x3c148065	0.009063815
120	0xbd125e5e	-0.035734527
121	0x3af078ef	0.0018346588
122	0x3cc20414	0.023683585
123	0xbbd23e27	-0.0064161005
124	0x3b747ec1	0.0037306997
125	0xbd0f3076	-0.034958325
126	0x3d0f4687	0.03497937
127	0xbbd5da16	-0.006526242
128	0xbadf5d2b	-0.0017041316
129	0xbd0a2ebc	-0.033735976
130	0x3cccceb6	0.025000911
131	0x3cb3b750	0.021937996
132	0x3d1243f8	0.03570935
133	0xbd1b5d57	-0.037930813
134	0xbcd56eb8	-0.026053771
135	0x3be0de4c	0.0068624374
136	0xbcfd7838	-0.030941114
137	0x3cb46220	0.022019446
138	0xbd7d463b	-0.061834555
139	0x3c54ad82	0.012980821
140	0x3c9cf3a1	0.01915914
141	0xbb92d4a9	-0.0044809175
142	0xbc47660c	-0.012170326
143	0x3c78679e	0.015161423
144	0xbd178e26	-0.037000798
145	0xbb6cfe40	-0.0036162287
146	0xbc3de322	-0.011589797
147	0xbca9ddc9	-0.020735638
148	0x3b886f71	0.0041636755
149	0x3d2f0900	0.042733192
150	0xbc1d7390	-0.009610072
151	0xbc052503	-0.0081265
152	0x3ca44ee4	0.02005715
153	0xbc3b9555	-0.011449178
154	0xbc70ae6d	-0.014690024
155	0x3c9cfa30	0.019162267
156	0xbd08eb50	-0.033427536
157	0xbc7b68d0	-0.0153448135
158	0x3ca90845	0.020633826
159	0xbc712eec	-0.01472066
160	0x3c8220b4	0.015884735
161	0xbc0fee65	-0.008784865
162	0xbd50826b	-0.050905626
163	0xbc12735a	-0.008938635
164	0x3d403dcc	0.046933934
165	0xbc6f8982	-0.014620187
166	0xbd6b81a6	-0.05749669
167	0x3c0333c6	0.008007949
168	0xbb7e0549	-0.0038760474
169	0xbd5b4cba	-0.05353997
170	0x3cde23fa	0.027116764
171	0x3ce143a6	0.027498078
172	0x3b72e5d3	0.0037063255
173	0x3c0511f1	0.008121953
174	0xbcaa6f27	-0.020804955
175	0xbd3bffa4	-0.045898095
176	0x3c4d0c24	0.012515102
177	0x3c3a3b0a	0.011366615
178	0x3c477425	0.012173687
179	0xbd427776	-0.047477208
180	0x3d279b73	0.040919732
181	0x3cdbe87b	0.026844254
182	0x3d263c3e	0.040584795
183	0x3d0f2c6c	0.034954473
184	0x3b8e77dc	0.0043477844
185	0x3d57bbea	0.052669443
186	0x3d6a56f6	0.05721184
187	0x3d533238	0.051561564
188	0x3a82dbd9	0.0009983733
189	0x3c51e0b6	0.012809923
190	0xbcb88456	-0.02252404
191	0xbd2347bf	-0.039863344
192	0x3c84d9b6	0.016217094
193	0x3c9e6e2d	0.019339645
194	0xbd2a14ae	-0.041523628
195	0xbd616298	-0.055025667
196	0xbd1ffb0b	-0.039057773
197	0xbbc852fb	-0.0061134077
198	0xbca6c0ea	-0.02035566
199	0x3c949c41	0.018140914
200	0xbd1d1206	-0.038347267
201	0xbd249c9f	-0.040188428
202	0xbd39b2d7	-0.04533657
203	0x3b5bf2a3	0.003356137
204	0xbd46169f	-0.048361417
205	0xbd39e892	-0.045387812
206	0x3c82616e	0.015915599
207	0xbc8bf1ab	-0.01708301
208	0xbc30a590	-0.010781661
209	0x3cf7ca23	0.030247753
210	0xbd0489a8	-0.03235784
211	0x3c8b3bfb	0.016996374
212	0xbd278feb	-0.040908735
213	0x3cb4028b	0.021973869
214	0xbbcea84b	-0.006306683
215	0x3d27ef74	0.040999845
216	0xbccef54b	-0.02526345
217	0xbd15846f	-0.03650325
218	0xbb0e51d3	-0.0021716252
219	0xbcc33513	-0.023829019
220	0xbcef8df1	-0.029242488
221	0x3cdf2ef2	0.027244065
222	0xbd23c893	-0.039986204
223	0xbd7001b4	-0.058595374
224	0xbc3edc22	-0.011649163
225	0x3c59d222	0.0132947285
226	0xbccaf66a	-0.024775703
227	0x3d3525d7	0.04422554
228	0xbcadbbf7	-0.021207793
229	0x3c28ef99	0.010311031
230	0x3bc54f30	0.006021403
231	0x3d514444	0.051090494
232	0xbcba6f06	-0.022758018
233	0xbb836b0a	-0.004010563
234	0xbcea3941	-0.028591754
235	0x3ca860c8	0.020553961
236	0xbd47675a	-0.048682548
237	0xbd3dd37d	-0.04634427
238	0xbd2512fc	-0.040301308
239	0x3cb7fd35	0.022459606
240	0xbc90b240	-0.017663121
241	0xbd09a462	-0.033604033
242	0xbc718a2a	-0.014742414
243	0x3c1b478d	0.009477508
244	0x3b8d29d2	0.004307964
245	0xbca70510	-0.020388156
246	0x3ca5ea7d	0.020253414
247	0xbc8afbc9	-0.016965764
248	0xbd108547	-0.035283353
249	0xbceee703	-0.02916289
250	0xbd003bf2	-0.03130717
251	0xba92fad8	-0.0011213673
252	0xbc7b45a3	-0.015336427
253	0xbcd20c72	-0.0256407
254	0xbcebb9a5	-0.028775046
255	0xbca185c8	-0.019717112

conv_block_2.2.bias f4 [64]
0	0xb91b127d	-0.0001478884
1	0x3b8c579f	0.004282906
2	0xbcaad024	-0.020851202
3	0x3bc650f0	0.006052129
4	0xbc89aee8	-0.016807035
5	0x3be3d833	0.006953263
6	0xbd39bb59	-0.045344684
7	0xbc58a126	-0.0132220145
8	0xbd485d7b	-0.048917275
9	0x3d25e19f	0.040498372
10	0xbd0c1b51	-0.03420574
11	0x3be43520	0.006964341
12	0x3bb8955e	0.0056330403
13	0xbd0aad3c	-0.033856615
14	0xbd37fadf	-0.044916984
15	0x3beffe70	0.0073240325
16	0x3c521881	0.012823225
17	0xbb1b5353	-0.0023700788
18	0x37377e37	1.0937037e-05
19	0xbd19075d	-0.037360538
20	0xbd1f2fd8	-0.038863987
21	0xbd13526e	-0.035967283
22	0xbd4b9e8a	-0.04971174
23	0xbd132f90	-0.03593403
24	0xbc043753	-0.008069831
25	0xbd5aab40	-0.053385973
26	0xbd8872cd	-0.066625215
27	0xbba35fcf	-0.0049857865
28	0xbc1b5f80	-0.009483218
29	0xbcda71f1	-0.02666566
30	0x3d47000b	0.048584025
31	0xbc9e2bc0	-0.019307971
32	0xbbf9e359	-0.007625979
33	0xbd5c8ee2	-0.0538472
34	0xbb620576	-0.0034488118
35	0xbd3c35e6	-0.04594984
36	0xbccd9b2c	-0.025098406
37	0xbbec5939	-0.0072127846
38	0xbbdb4907	-0.006692055
39	0xbd539c6a	-0.05166284
40	0xbb77e7e1	-0.003782742
41	0xbc478f71	-0.012180195
42	0xbd3ed2b8	-0.046587676
43	0x3d61daf1	0.05514044
44	0x3c7c6d9c	0.015406992
45	0xbc86f024	-0.01647193
46	0xb998a823	-0.0002911697
47	0xbd2f3e85	-0.042784233
48	0x3b0a6f04	0.00211233
49	0xbcab279b	-0.020892909
50	0x3c3b9d2a	0.011451045
51	0xbc31efcf	-0.0108603975
52	0x3d14e891	0.036354605
53	0xbd3b622f	-0.045747932
54	0x3d85cffe	0.06533812
55	0xbd11051b	-0.03540526
56	0xbd239333	-0.039935302
57	0xbb45ba4c	-0.0030170856
58	0xbd35e880	-0.044411182
59	0xbcc7e145	-0.02439941
60	0x3b385af1	0.0028130377
61	0xbd6a0296	-0.057131372
62	0xbd8988fb	-0.0671558
63	0xbcd87793	-0.026424205

classifier.1.weight f4 [3, 10816]
0	0x3c9de2b3	0.019273138
1	0x3bbb8173	0.0057222187
2	0x3c264425	0.010148083
3	0x3c53e8e4	0.012933943
4	0x3c9e45f2	0.019320462
5	0x3c213d73	0.009841311
6	0x3c0634c1	0.008191288
7	0x3c5e8ec6	0.0135838445
8	0x3c910654	0.017703213
9	0x3b998773	0.0046853363
10	0x3ba0e077	0.004909571
11	0x3c24346c	0.010022264
12	0x3c478d73	0.01217972
13	0x3cadd243	0.021218425
14	0x3cad1f26	0.021133017
15	0x3bf4ccfd	0.0074707256
16	0x3c836217	0.016037984
17	0x3c3465b0	0.011010572
18	0x3cbab508	0.0227914
19	0x3b96de89	0.004604165
20	0x3c8cfcfe	0.01721048
21	0x3c8dbbd5	0.01730148
22	0x3c8db9e4	0.017300554
23	0x3b93b753	0.004507938
24	0x3c8e25b6	0.017351966
25	0x3c8a52f2	0.016885255
26	0x3b9d2838	0.004796054
27	0x3bb23de4	0.005439507
28	0x3c631f91	0.0138625065
29	0x3c578133	0.013153362
30	0x3bdb6e53	0.0066965013
31	0x3ccd2aac	0.025044762
32	0x3c9e806b	0.019348344
33	0x3c96e480	0.018419504
34	0x3cae8d8f	0.021307735
35	0x3c68f461	0.014218421
36	0x3c694292	0.014237063
37	0x3c87495d	0.016514475
38	0x3c7755de	0.015096156
39	0x3c7a57a8	0.015279688
40	0x3c1f69de	0.009729831
41	0x3cb3d0d4	0.021950163
42	0x3cacc941	0.02109206
43	0x3c87cfdf	0.016578613
44	0x3c0bad9a	0.008525277
45	0x3c86281d	0.01637655
46	0x3c820167	0.01586981
47	0x3c8857ec	0.016643487
48	0x3c81eeb6	0.015860897
49	0x3c8ae058	0.016952679
50	0x3c8950ee	0.016762223
51	0x3ce0e42a	0.027452547
52	0x3c447c5d	0.011992541
53	0x3cc3816e	0.023865428
54	0x3c755464	0.014973734
55	0x3c9241f2	0.01785371
56	0x3c8f5f3d	0.017501468
57	0x3ca389e8	0.01996322
58	0x3bc21b42	0.0059236595
59	0x3cb7aec0	0.022422194
60	0x3c885ae9	0.016644912
61	0x3c46d6cd	0.012136173
62	0x3c74f37f	0.014950632
63	0x3c92b171	0.017906876
64	0x3bcdd573	0.0062815486
65	0x3c975bfa	0.018476475
66	0x3c28e142	0.010307612
67	0x3c77da6c	0.015127759
68	0x3ca3c84a	0.019992966
69	0x3c481ed8	0.012214385
70	0x3cb5d1c3	0.022194749
71	0x3c2cb0e3	0.01054022
72	0x3c8af09b	0.016960433
73	0x3cc320fc	0.02381944
74	0x3bd39710	0.006457217
75	0x3c9ef5a2	0.019404236
76	0x3c897d7f	0.016783474
77	0x3cc4de68	0.024031833
78	0x3c39bd81	0.011336685
79	0x3c94bb0e	0.0181556
80	0x3ca98c81	0.02069688
81	0x3ca763dc	0.020433359
82	0x3cad72b8	0.021172866
83	0x3c5f058b	0.013612161
84	0x3c76adce	0.015056087
85	0x3c3dd863	0.011587235
86	0x3c42e09d	0.011894372
87	0x3cb4e121	0.022080006
88	0x3bb63267	0.0055602076
89	0x3c7bddd2	0.01537271
90	0x3cc04570	0.02347061
91	0x3c90ec3f	0.017690776
92	0x3cdfcf1f	0.027320443
93	0x3ca13ce1	0.01968235
94	0x3caeec60	0.021352947
95	0x3c927ab7	0.01788078
96	0x3cdaeb06	0.026723396
97	0x3cb8acdd	0.022543365
98	0x3c9684f4	0.018373944
99	0x3ce40500	0.027834415
100	0x3c9304ff	0.017946718
101	0x3c72f882	0.014829757
102	0x3c68ee68	0.014216997
103	0x3ca0c4f4	0.019625165
104	0x3c3ced1d	0.011531142
105	0x3ca0f27d	0.019646877
106	0x3cc13258	0.023583576
107	0x3cd13625	0.025538513
108	0x3c65be4c	0.014022421
109	0x3c5644db	0.01307794
110	0x3c4accef	0.012377962
111	0x3c200672	0.009767162
112	0x3caad197	0.020851893
113	0x3c7414de	0.014897553
114	0x3cb54b7d	0.022130722
115	0x3c84fe8c	0.016234659
116	0x3c873439	0.016504394
117	0x3ca9ee40	0.02074349
118	0x3c9db576	0.019251566
119	0x3ca5f850	0.020260006
120	0x3c23768b	0.009976993
121	0x3c3d1559	0.011540734
122	0x3c29af6b	0.010356764
123	0x3c8bd213	0.017067945
124	0x3c20f805	0.009824757
125	0x3ced5ed8	0.02897589
126	0x3c7d3d1a	0.015456462
127	0x3c4295a9	0.011876502
128	0x3c4f9305	0.0126693295
129	0x3cb605e2	0.022219602
130	0x3c6f1d77	0.014594427
131	0x3cb65681	0.022258045
132	0x3bae2cd4	0.0053154025
133	0x3c6d459d	0.014481929
134	0x3c45d67f	0.012075066
135	0x3c9e409d	0.01931792
136	0x3c352045	0.011055057
137	0x3ceae9f1	0.028676005
138	0x3c620907	0.013796098
139	0x3c420c0d	0.011843693
140	0x3ce6e312	0.028184447
141	0x3c794f04	0.015216593
142	0x3cb5bb4e	0.02218404
143	0x3caf5081	0.021400692
144	0x3c0e4598	0.008683585
145	0x3c832f1c	0.016013674
146	0x3c1f79cf	0.009733631
147	0x3c09f78b	0.008420835
148	0x3c818349	0.015809672
149	0x3bd339e8	0.006446112
150	0x3c982fa6	0.018577408
151	0x3c31232b	0.010811607
152	0x3c3163d9	0.010827028
153	0x3cea7d20	0.028624117
154	0x3caccee9	0.021094756
155	0x3cabf0da	0.02098887
156	0x3bafa8ea	0.0053607123
157	0x3c8f0a21	0.017460885
158	0x3c9fd85e	0.019512352
159	0x3bc84fa2	0.0061130086
160	0x3c87ce05	0.01657773
161	0x3c810085	0.015747318
162	0x3c7fa230	0.015602633
163	0x3c86bcd6	0.016447466
164	0x3c21ccba	0.009875471
165	0x3cb8536b	0.022500714
166	0x3cb0d07b	0.021583786
167	0x3c910cb4	0.017706253
168	0x3c49231c	0.012276437
169	0x3c474447	0.012162275
170	0xbaab49b5	-0.0013068231
171	0x3bd0b502	0.006369234
172	0x3af1fdb1	0.0018462447
173	0x3c118832	0.008882569
174	0xbcc9eab5	-0.02464805
175	0xbc646f48	-0.013942547
176	0xba7be07b	-0.00096083403
177	0xbb2af8c9	-0.002608823
178	0xba4bdb03	-0.0007776471
179	0xbbe53866	-0.0069952486
180	0xba096a3c	-0.00052419654
181	0xbba7a216	-0.0051157577
182	0x3bf90832	0.007599854
183	0xbc3bf4b5	-0.011471917
184	0xbbdc1174	-0.0067159478
185	0x3bd275e8	0.006422747
186	0xbc65ef37	-0.014034084
187	0xbc1bedcb	-0.0095171435
188	0xbce5dc5b	-0.028059175
189	0xbcb46b88	-0.022023931
190	0xbb58835d	-0.0033037283
191	0xbbbdb41c	-0.005789293
192	0xbb858150	-0.004074253
193	0x3a6986a8	0.000890831
194	0xba88d7e5	-0.0010440318
195	0x3c895cf9	0.016767966
196	0xb98e3b2a	-0.0002712843
197	0xbc04661c	-0.008080985
198	0x3c833ecd	0.016021157
199	0xbca0ee3f	-0.019644855
200	0xbcbf3487	-0.023340477
201	0xbc7ca3a0	-0.015419871
202	0xbcb002f6	-0.021485787
203	0xbc9c376e	-0.0190694
204	0xbc7daff9	-0.01548385
205	0xbc80a17f	-0.015702007
206	0xbce3323a	-0.02773391
207	0xbcd640a4	-0.02615387
208	0xbb95486b	-0.004555752
209	0xbc1a0c65	-0.009402369
210	0x39d1fd2a	0.00040052208
211	0xbc8eb062	-0.01741809
212	0xbbc80437	-0.006104018
213	0xbc464f37	-0.012103847
214	0x3b36f0db	0.0027914557
215	0xbca82895	-0.020527164
216	0xbc468183	-0.012115839
217	0xbc029bab	-0.007971684
218	0xbc9bbcbd	-0.019010896
219	0xbb82b85f	-0.003989264
220	0xbc3bb2d3	-0.011456209
221	0xbc16c386	-0.00920189
222	0xba6f9c12	-0.0009140383
223	0xbbb3c9d8	-0.005486708
224	0xbc4c8da2	-0.01248494
225	0xbcd97301	-0.026544096
226	0xbc64c5ec	-0.013963204
227	0x3c882dea	0.016623456
228	0xbc5aecd5	-0.013362129
229	0x3bd68a57	0.006547253
230	0x3c3a13f2	0.011357294
231	0x3b9ec7a9	0.0048455787
232	0x3c4c73ce	0.012478782
233	0x3ba13fd5	0.0049209394
234	0xbc106f75	-0.008815636
235	0x3c6b0a4e	0.014345719
236	0x3bc48329	0.005997081
237	0xbbe916a6	-0.0071132956
238	0xbc610936	-0.013735106
239	0xbc342f35	-0.010997583
240	0xbba66e7c	-0.0050790887
241	0x3b3ab671	0.0028490091
242	0xbb314691	-0.0027050117
243	0xbc989802	-0.01862717
244	0xbbf6f456	-0.0075364513
245	0xb95f2b17	-0.0002128299
246	0x3c6b923b	0.014378126
247	0x3c5e93d4	0.01358505
248	0x3bdb48c9	0.0066920263
249	0x3c1a9b8d	0.0094365
250	0x3c76267e	0.015023826
251	0x3c0a17d1	0.00842853
252	0xb9882f17	-0.00025975026
253	0x3c015d7c	0.007895824
254	0x3bb2d201	0.0054571633
255	0x3b947cc1	0.0045314734

classifier.1.bias f4 [3]
0	0x3d45697b	0.048196297
1	0xbcbba519	-0.022905873
2	0xbc801dc0	-0.015639186
