models/03_pytorch.computer_vision_fashion_mnist_Tiny_vgg.pth (torch, 35972 bytes, 10 tensors)

conv_block_1.0.weight f4 [10, 1, 3, 3]
00000000: 3aa0 833e da0d 833e 0258 a6be 6895 5b3e
00000010: 5038 f23d 4670 693d a864 8ebe 1278 023e
00000020: 9152 933e 206c 0bbf 24b9 093f 5ce4 85bc
00000030: 50ef 37bd ed60 073f 5356 c93d 0cef febd
00000040: e108 6c3e baac de3b b113 d7be ae6c d5bd
00000050: add8 303d b055 3cbf fcbc 52bf f953 593d
00000060: b0a6 4dbf 795a 43bf 21bf 1cbe 9c3e f5be
00000070: 6c8b 7ebf dee1 08bf f9c8 a03e 8386 2fbf
00000080: 926d 383e 56ca c63e 4fb8 1cbd ef0b ec3e
00000090: fb60 b2bc 479b d93e 7939 7abe cb65 00be
000000a0: f313 9d3e fc0a c4be e084 793e d6d4 813e
000000b0: 53af 14be 899a 15be e596 3f3e c732 5f3d
000000c0: 4822 2c3e bff4 50be 9dfc a9be b23c 04be
000000d0: e111 83be a713 833e 549a 303e 3c02 893e
000000e0: 13e8 133e 995a 783e cc1e 793e 5313 a2be
000000f0: e3bf 483c de22 05bf 03c8 b9bd 99df ebbd
00000100: 875c 2a3e ed2c 43be b5bc b13e 38a8 f2bd
00000110: c932 b0be 7e53 75be c880 cc3e 7d9b 173e
00000120: cada d63e 1d83 cfbe a4ad d3be daff 91be
00000130: d998 d8be 6a46 623c d8d8 393e 9d06 c63e
00000140: 4c6b 2abe 8dd8 68be 7642 343e 12ba 0abe
00000150: 6bd6 4d3e 326d a3bd de8a 413e 57d2 84be
00000160: d19a 2cbe 2e7f cd3d
0.2570818 0.25596505 -0.3248902 0.21443713 0.11827147 0.056991838 -0.2781117 0.12741116
0.2877393 -0.5446186 0.5379813 -0.016344242 -0.04490596 0.5288227 0.09830918 -0.12447938
0.23050262 0.006795493 -0.4200721 -0.1042112 0.043175388 -0.7356825 -0.8231962 0.0530586
-0.8033247 -0.76309925 -0.15307285 -0.4789933 -0.9943149 -0.53469646 0.3140333 -0.68564624
0.18010548 0.38826245 -0.038261708 0.46102855 -0.02177476 0.4250128 -0.24435987 -0.12538831
0.30679283 -0.3828963 0.24367094 0.25357693 -0.14520006 -0.14609732 0.18709905 0.054491784
0.16809952 -0.20405863 -0.3320054 -0.12913778 -0.25599578 0.2560093 0.17246372 0.26759517
0.14443998 0.2425331 0.24328154 -0.31655368 0.012252781 -0.5200633 -0.09071352 -0.11517257
0.16636859 -0.19060107 0.34714285 -0.118484914 -0.34413746 -0.23957631 0.39942002 0.14805408
0.41963798 -0.4052972 -0.41343415 -0.28515512 -0.42304114 0.013810733 0.18149126 0.3867692
-0.16642493 -0.22738858 0.17603478 -0.13547543 0.20101325 -0.07979812 0.1890063 -0.25941727
-0.16855933 0.10034023

conv_block_1.0.bias f4 [10]
00000000: 884c f2bb dc9c aa3d 8b0f 623e 30f2 d93d
00000010: 0c20 3d3c 9bea 4cbe e995 aa3d c683 aebd
00000020: 24a9 4f3d d0dd a5be
-0.007394377 0.083307 0.22076242 0.10641897 0.011543285 -0.2001137 0.08329374 -0.085212275
0.050698414 -0.32395792

conv_block_1.2.weight f4 [10, 10, 3, 3]
00000000: 25e5 d5bd 7d2c 15bd 7880 923d 762a 49be
00000010: ca12 a8be 7399 5cbe c3d5 59bd 0577 79be
00000020: 40ff 72be a03e 23be d82e 5f3b aa73 c03d
00000030: 57e9 3cbe ca8e 96be ff07 13be 5e44 8abd
00000040: 4640 11be 2253 11be c6a8 f9bc 04c4 f23b
00000050: bab4 073e 0501 9b3d 98b9 a53e e555 a13e
00000060: 9213 1abe b1fe 243d b944 c43d c6d0 fbbd
00000070: c964 47bc e50b fcbd 1728 0b3b e0bb 3b3d
00000080: 8c97 f338 f816 f03d 3b2c c83d 6660 383e
00000090: c080 07be 2178 2ebe c01e e9bc c730 8abd
000000a0: 2a69 cabc bfce 1dbe 2578 2c3e 76d0 69bd
000000b0: 851c 8bbd fa21 b93c 566b 5f3d 5eeb ad3d
000000c0: 51de c53d a1d1 aabd fb95 e53c d481 3abd
000000d0: d37b 4fbc 1d42 9ebd 54c9 483e 8a4f 35bd
000000e0: 9eb2 933d f593 e03d e13a 843d d747 cabc
000000f0: 7464 703d ea13 8fbd 91e1 a2bd c46d 92bd
00000100: 1501 513d 4876 e0bb 8561 03bc 2a80 b03d
00000110: f990 ad3c f485 f7bb b5e5 abbb 295c 17bd
00000120: 1112 6f3d 2532 28bd 00f6 8abd 6dbb 383d
00000130: 2e96 81bd a3d1 d43c 7d1b 133e 6381 8ebd
00000140: f992 8d3c 4609 5f3d 5aa1 9c3c ab71 19bd
00000150: 1b5a 613d c5e4 623d e78e 213d abbb 97bc
00000160: 1ca4 e4bc 5ec4 383c 4def d4b9 0603 83bd
00000170: 043f 1f3d 2212 ea3d 892d 57bc 2715 45bd
00000180: f63a 113d 0c8e 513d 4063 463c 65ec da3c
00000190: 3f49 0bbe f75d 51bd ba6e 183e a9e8 fc3c
000001a0: 98a4 14bd b84b 333b f7d7 19bd 4855 cabd
000001b0: 5ba2 16bd 70b0 2a3d 55d9 893d 112e 483d
000001c0: aaae c1bd 7095 adbd fbbe 6ebc db89 d43d
000001d0: 5d44 c2bb faf2 79bd 499c d63c a165 0dbd
000001e0: b0ee 66bd cfce a33d 4f07 b6bc d3c9 b0bc
000001f0: 29c4 e4bd 07b8 023e 2551 a33d ce28 9b3b
00000200: 1f69 cbbd c974 b0bd 044c 90bd 3b50 953d
00000210: 70da 8a3d c514 fa3d c06b 5f3d 2dfb da3c
00000220: 46e7 72ba 854b a4bd 6225 b9bd 0cc2 c9bd
00000230: e363 323d 09f7 53bd f031 aebc ab53 78bd
00000240: 2c4e d7bc b1b2 a7bd 411d 87bd eb37 eb3c
00000250: ae1a 02bd 8a8b 883d 8f3a 2fbd 6c84 b1bd
00000260: 797d d0bc e1e3 5cbd ba7f 23bd 1e11 cdbd
00000270: f750 9b3d 780a 6cbd 41f5 573d 8e50 313d
00000280: 9f7e ca3d 0fbe 8ebd 6cc5 973d 07f0 5fbd
00000290: 4322 653c ca13 c33d 8ca0 913b 90fa 4b3c
000002a0: 81db d0bc 245e a8bd 5820 843d 3a4e d6bd
000002b0: 3a0a 863d 6e85 a13d c222 cc3d 35a4 cbbc
000002c0: a25d b1bd dd08 c23c 1d80 6e3d b7da d6bd
000002d0: 8f95 c9bc e8c2 80bd 96bb 0cbc 90c5 60bd
000002e0: 12bf 2cbd 0190 0bbd 1e92 e5bd 8bf3 a73d
000002f0: e3e7 af3d 41b4 8cbc c5fa 45bc 0527 31bd
00000300: 8c87 cfbd c95e d3bd 8f28 1e3d cff4 87bd
00000310: 5b92 94bd d6f7 49bc a4a1 15bd 8c54 1ebd
00000320: ee1e 17bb 6d99 b8bc b471 22bd 80d8 58bd
00000330: 2d89 afbd e9fc b33d 2485 2dbd 9769 b33c
00000340: 7f09 1fbd 2e10 fb3b 1c29 ae3d ba6e 1b3d
00000350: ffe7 c9bd 7bc4 0d3d 2c59 b13d d52b 813c
00000360: e271 893d 1b0c d33d 1865 86bc 2bbe 793c
00000370: 2f18 9ebd 556d bfbc 000e 8d3d 6e5f 463d
00000380: ca1f 8fbd 0d1c adbd dd85 93bd f00c d5bd
00000390: 7b94 a6bd 1527 d5bc eab8 913d 707b 903c
000003a0: 0c18 a4bd 4c2e adbd 748b 4d3d 37ff a5bd
000003b0: 6ad3 79bc 6685 483d d1fd 4ebd 6b4a 4dbc
000003c0: 3afc 47bc e28f d1bc a274 5ebd 6b76 c0bd
000003d0: 4283 aebd c026 67bd 0065 c53d 807d 4fbd
000003e0: decc 92bd be26 b83c 1942 c93c 010c 683d
000003f0: e294 9a3d 449f 693d 7e4e d7bd d9df 843b
-0.104440965 -0.03641938 0.0715341 -0.19645104 -0.32826835 -0.21542911 -0.053182375 -0.24361809
-0.23730183 -0.15941858 0.003405502 0.09397061 -0.18448387 -0.29405814 -0.14358519 -0.06751321
-0.14184675 -0.14191869 -0.030475985 0.007408621 0.13252535 0.07568554 0.3236816 0.31510845
-0.15046528 0.040281955 0.0958342 -0.1229568 -0.012170025 -0.12306956 0.0021233612 0.04583347
0.00011615371 0.11723131 0.09774061 0.18005523 -0.13232708 -0.17038013 -0.028457046 -0.06747585
-0.02470835 -0.15410899 0.16842707 -0.05708357 -0.06792549 0.02259921 0.054545723 0.08492158
0.09661544 -0.08340765 0.028025618 -0.04553397 -0.012663799 -0.07727454 0.1960805 -0.044265307
0.07211803 0.109657206 0.06456543 -0.024692459 0.05868955 -0.0698622 -0.0795318 -0.071498424
0.051026423 -0.0068500377 -0.008018856 0.08618195 0.021187292 -0.0075538103 -0.005245889 -0.036953125
0.05836684 -0.041063447 -0.06785202 0.04510062 -0.063274726 0.025978869 0.14365955 -0.06958272
0.017281996 0.054452203 0.019119907 -0.037461918 0.055017572 0.055393953 0.039442923 -0.018522104
-0.027910285 0.011277286 -0.00040614084 -0.06397061 0.038878456 0.1142924 -0.013133415 -0.048115876
0.03545662 0.051160857 0.012108624 0.02672405 -0.1360216 -0.051115002 0.14885989 0.03087266
-0.03628978 0.0027358364 -0.037559476 -0.09879547 -0.036775928 0.04167217 0.06730906 0.048872057
-0.09457143 -0.084757686 -0.0145719005 0.10377856 -0.0059285597 -0.061022736 0.02619757 -0.03452075
-0.056379974 0.0799843 -0.022220282 -0.021580612 -0.11170227 0.12765513 0.079744615 0.004735089
-0.0993216 -0.08616025 -0.07045749 0.07290693 0.06779945 0.12210993 0.054546118 0.026731098
-0.000926603 -0.08022217 -0.09040333 -0.09851465 0.04355229 -0.051749263 -0.021264046 -0.060626667
-0.026282392 -0.081883796 -0.065973766 0.028713187 -0.031763725 0.0666724 -0.042780455 -0.086678356
-0.025450455 -0.05392826 -0.03991673 -0.100130305 0.07583802 -0.05762717 0.052724127 0.043289714
0.09887432 -0.069698445 0.07410702 -0.054672267 0.013985219 0.09525259 0.0044441875 0.0124498755
-0.025495293 -0.08221081 0.064514816 -0.10464139 0.06544919 0.07886778 0.09967567 -0.024858573
-0.08660437 0.023685867 0.058227647 -0.10490935 -0.024607448 -0.062871754 -0.008589646 -0.05487591
-0.042174406 -0.03407288 -0.1120951 0.08200749 0.08589151 -0.017175796 -0.012083714 -0.043250103
-0.101332754 -0.10320813 0.0386129 -0.066384904 -0.072544776 -0.012327155 -0.036531106 -0.03865485
-0.0023059207 -0.022534097 -0.039659217 -0.052940845 -0.08571086 0.08788473 -0.0423633 0.021900935
-0.038827416 0.007661841 0.08503935 0.037947394 -0.09858703 0.034611207 0.08659586 0.015767971
0.067111745 0.10305043 -0.016405627 0.0152430935 -0.077194564 -0.023367563 0.06887436 0.048430853
-0.06988485 -0.08452616 -0.07203267 -0.10402858 -0.08133789 -0.026019612 0.07115348 0.017636985
-0.08012399 -0.08456096 0.05018182 -0.08105319 -0.015248159 0.048955344 -0.050535027 -0.01252995
-0.012206132 -0.025581304 -0.05431045 -0.093975864 -0.08521129 -0.05643344 0.09638405 -0.050656796
-0.071679816 0.022479411 0.02456765 0.056652073 0.075479284 0.057036653 -0.10513018 0.004055005

conv_block_1.2.bias f4 [10]
00000000: 30e9 013f ae21 05bd 6440 a5bd 281a fb3e
00000010: eb76 973a eb5d 623d 3819 e13e 35ed 973d
00000020: 2f15 9f3e 43eb 02be
0.5074644 -0.032502823 -0.08068922 0.49043393 0.0011555826 0.05526535 0.43964553 0.074182905
0.3107085 -0.12785058

conv_block_2.0.weight f4 [10, 10, 3, 3]
00000000: e202 9f3d 680e aa3d aca8 1d3d 8694 37be
00000010: ef57 33bd 7f18 393d 9ca6 0bbe fcd6 003d
00000020: c08b 8abd fc8b 9c3d 8def b9bd d65f 21bd
00000030: 7546 c2bd 1b8a a1bd a830 0a3d c1d1 c5bb
00000040: af32 013d 2a41 a1bd befe 813c f6cd 83bd
00000050: 794c 4f3d 463f 38bd f4c8 ccbc c14d babd
00000060: 8d6e 7d3a dcc1 cd3d b6b9 513d 3466 36be
00000070: be6c f3bd c9e9 21be 5fe8 4e3c 456e 553e
00000080: 54ae 063e d555 e43c d81e 233d 8afd e13d
00000090: 1b29 ae3d 997b 913c 29c0 133e 9b20 52bd
000000a0: d0c6 8c3d 80db 3f3d 9937 47be 6e3a 07bd
000000b0: 307a 233e 508b a9bd 6a2d 10be a27e d9bd
000000c0: fd56 ab3c 0c16 bbbd ff5d 15be 21f9 d83d
000000d0: 68ce 913d e2b6 b23d dcdd 73bd 7ba7 91bd
000000e0: ede4 9bbe 601c 3c3e 9bd4 0d3e d807 8f3e
000000f0: 669c 743e e40e 85bd 7916 863d 7b2c c83d
00000100: 9824 5cbd 77d8 3fbd 75fc 713d 2029 043d
00000110: e854 dfbd 1f9c 20bd 6e5a 3dbe c279 aebd
00000120: 529c 1dbe 7686 85be 386f 3dbe 11c4 713e
00000130: 24d6 613e ce78 033e a3cc 023d c2b7 f4bd
00000140: b980 f83d bd02 043e 3618 5dbe d4f6 5e3e
00000150: c3e2 60bd 5ed5 743b 5699 4fbe 6cc4 50be
00000160: 2356 7b3e c545 a63b 1434 aabb afa1 27be
00000170: 62ff 8fbe f1aa 253d ad99 64be 9320 11bb
00000180: cfa2 3cbd 1169 c43d 8c11 213e c14d fa3c
00000190: b06d 79bd 57fe efbd f0fc 6fbd c82a 803d
000001a0: 2071 0abd 3866 9f3c cbfc 49bd d539 803d
000001b0: caf2 833d e7ce 1d3d bb5b 53bd bc32 b0bd
000001c0: e85c 853b 0409 7cbd 2726 b23d aa11 cfbd
000001d0: 73d6 403d ade6 37be c5ae 9c3e 8de0 833e
000001e0: 03c5 e33c 58c5 163f a939 b93e 0bc9 85be
000001f0: e7a1 31be 99ce bdbe 9973 523e 264d 9c3e
00000200: 84b2 eb3c 8b17 cb3c cde0 f53d ba2c 993d
00000210: 8e44 48be 5e22 d7be edea e7bc e262 f0bd
00000220: a609 30be b934 66bd c936 093e 1903 aa3e
00000230: 810e f33d b64a 0c3e 28fe a63d a5e9 8ebb
00000240: 9659 f5be 30c5 05be 16ba c03e d4d7 e93c
00000250: e031 68bd dd51 c43e 4ae2 f9bd 8182 8fbe
00000260: 8f61 dbbd 51a6 57be 32b7 8abe 0e72 b63d
00000270: a8a7 85be a3e3 e4bd 7d9e fd3c 0c22 6abe
00000280: 38ba 98bd 24aa d93c 8cd6 b0be 2f7f ebbd
00000290: 9af9 8b3e aa7f 293e 5acb b23e 934d db3e
000002a0: 6c70 823d 24c2 30be f4a0 efbd 9037 843e
000002b0: ac2e 9e3d 57d1 4ebe 9c72 1fbd 017e 81be
000002c0: 416a 9ebe 7c74 e0be e700 0cbe 7bb2 333e
000002d0: f01f 71bd c9fd 863d 0cd9 0f3d ee27 d4bd
000002e0: 8ee3 fbbd f7f8 0dbe fcb7 6cbd c8f4 8fbd
000002f0: c63b e9bc 776f c7bc 81c9 59bd fae2 04bd
00000300: 1a53 19bd 7e62 d33d 1560 15bd ca0c 9bbd
00000310: c982 2e3d ad44 d8bb 1465 a53d 3cf5 863d
00000320: b669 c63d 9b59 9ebd 74cf 8a3d 193e b53d
00000330: 90c0 55bd 0d92 c63d 67d8 a13d f796 34bd
00000340: 277e 4dbd e4c1 10be 1e3a eabd 9487 af3b
00000350: cccc b23c 9362 cabd 07e0 513d 29dc c4bd
00000360: 809c 6f3d 0a64 593d 8f88 083d 5705 a4bd
00000370: d8e8 5d3d 717c b03d 8557 0c3c 6d9b 2b3d
00000380: 10b3 113e cb95 9fbd 2ca2 babd c738 a7bc
00000390: 4225 1dbb af85 373d d78a d1bd 4f49 9ebb
000003a0: 7211 0a3c 425f 50bd 4812 2d3d bff3 47bd
000003b0: a6fd 1dbe 1cbd 01bd b607 b0bd c8cc bdbb
000003c0: 019e 56bd 3e5a 10be cd38 aebc 4a49 8abc
000003d0: 9d63 5fbd 8adc d63d 362c abbc 24ca 4f3d
000003e0: 5b24 373d 56b8 d6bd 1ed4 6bbc f1fb 9b3d
000003f0: 0e2c f3bd 3b78 20be cffd bdbc f120 873d
0.07764222 0.08303529 0.038490936 -0.17927751 -0.043785032 0.045189377 -0.13637775 0.031455025
-0.067649364 0.076438874 -0.09078894 -0.039398037 -0.09486095 -0.0788767 0.03373781 -0.0060369675
0.031542476 -0.07873757 0.01586854 -0.06435768 0.05061004 -0.044982217 -0.024998166 -0.09096862
0.00096676574 0.10046741 0.0512025 -0.17812425 -0.11885975 -0.15811838 0.012628644 0.20842846
0.13152438 0.02787296 0.039824337 0.11034687 0.08503934 0.017759131 0.14428772 -0.051300626
0.06873858 0.04684019 -0.19454803 -0.033014707 0.1596458 -0.08278525 -0.14079824 -0.106198564
0.020915503 -0.091350645 -0.14586638 0.105943926 0.07119447 0.087262884 -0.059537753 -0.071120225
-0.30448094 0.18370199 0.13850634 0.27935672 0.23887786 -0.06496981 0.06547255 0.09774109
-0.053745836 -0.046837296 0.059078652 0.032265782 -0.109048665 -0.03921139 -0.18491527 -0.08519317
-0.15391663 -0.26079148 -0.18499458 0.2360995 0.22054344 0.12839052 0.031933438 -0.119491115
0.12133927 0.1289167 -0.21591267 0.21773845 -0.054903757 0.0037358622 -0.20273337 -0.20387429
0.24544577 0.005074235 -0.0051941965 -0.16370271 -0.2812453 0.040446226 -0.22324248 -0.002214466
-0.046053704 0.09590352 0.1572935 0.030554654 -0.06089562 -0.11718433 -0.05859083 0.0625816
-0.03379929 0.019457921 -0.049313348 0.062610306 0.06442793 0.038527396 -0.051601153 -0.08603427
0.004069913 -0.061532035 0.08698683 -0.10110791 0.047079515 -0.1795909 0.3060209 0.25757256
0.027803903 0.5889487 0.36176804 -0.26129946 -0.17346917 -0.37071684 0.2055191 0.3052761
0.028771646 0.0247915 0.12005768 0.07479234 -0.19557402 -0.42018408 -0.028310264 -0.117376104
-0.1719118 -0.056202624 0.13399805 0.33205488 0.11868001 0.13700375 0.08153945 -0.0043613487
-0.4791991 -0.13063502 0.37641972 0.028545298 -0.05668819 0.38343707 -0.12201364 -0.28029254
-0.10711967 -0.21059538 -0.27092892 0.08908473 -0.26104474 -0.11176231 0.030959362 -0.2286455
-0.074573934 0.026570387 -0.34538686 -0.11498868 0.27338868 0.16552606 0.3492077 0.42832622
0.06369099 -0.17261559 -0.11700621 0.2582364 0.07723746 -0.20197044 -0.03892766 -0.25291446
-0.3094044 -0.4383887 -0.13672219 0.17548554 -0.05886835 0.065913744 0.0351191 -0.103591785
-0.12299262 -0.13864504 -0.05779265 -0.0702911 -0.028470885 -0.024345143 -0.053170685 -0.032443024
-0.037432767 0.1032152 -0.036468584 -0.07570799 0.042605195 -0.0065999837 0.0807592 0.065897435
0.096881315 -0.07731935 0.0677785 0.08849735 -0.052185595 0.09695826 0.079026036 -0.044089284
-0.050169136 -0.14136463 -0.11436866 0.0053567383 0.02182617 -0.09882083 0.05123904 -0.09612305
0.05849886 0.05307392 0.033333357 -0.08008831 0.054177135 0.08617485 0.008565788 0.041896272
0.14228463 -0.077922426 -0.09112963 -0.020412816 -0.0023978506 0.044805225 -0.1023156 -0.0048305164
0.008427011 -0.050872095 0.042253762 -0.04881644 -0.1542879 -0.03167449 -0.08595221 -0.005792234
-0.052396778 -0.14096925 -0.02126732 -0.01688065 -0.054538358 0.10491283 -0.020895105 0.050729886
0.044712406 -0.10484378 -0.014393834 0.076164134 -0.11873637 -0.15670864 -0.023192314 0.0659808

conv_block_2.0.bias f4 [10]
00000000: 5912 1a3a 09be 463e 423f b2bd 14d3 07be
00000010: 5467 c1bd 17b5 82bc 6156 1c3e 56e3 213e
00000020: a828 403f 29a8 9e3e
0.0005877368 0.1940843 -0.08703472 -0.13264114 -0.094435364 -0.015955491 0.15267326 0.15809378
0.75062037 0.3098767

conv_block_2.2.weight f4 [10, 10, 3, 3]
00000000: ff8d febd 9deb 523c 413a 1f3d 0674 813d
00000010: 5790 ec3d 6752 b7bd d6ed ffbc a6a2 66be
00000020: a51f f13c 8f0a c33b bbc3 3cbe 16f0 8c3d
00000030: edbc 553d a690 06bd a290 aebe 179d 293e
00000040: bf64 b6ba 33e2 3dbf 0582 8cbc e57f 9bbd
00000050: f3a3 cd3d 9567 43be e758 1b3d ab60 34bc
00000060: d8c5 31bd 441f 623d c681 19be 82d2 83bd
00000070: e3dc e43d a9c0 3fbd 7565 58bd e123 cabb
00000080: cf22 9bbc ba25 68bb ab52 6abd 8ef6 883d
00000090: a188 98bd 320c ab3c 9217 883d 9982 1ebc
000000a0: cf6a 06bc 37b1 403c 6ad4 36bd 8824 fcbc
000000b0: 75d2 81bd a66b 2abe 3b6a 96be 433f 963e
000000c0: 419f f5bd 6443 23bd f6c2 4e3e 6909 193e
000000d0: d692 5fbc db32 793d 1f25 b7be ee9b b2be
000000e0: 3815 dfbe 3ed7 7abe f7c7 973d ac1b 953e
000000f0: a17d 7d3d 01f4 e83c 390f ea3e 77b1 d33d
00000100: ceeb 8fbb 7186 81bd 01e6 1bbe 3ab0 353e
00000110: 0d23 17be 959f 81bd 9d45 903d 3c7a 50be
00000120: 0b12 103f 11cc 973d 116e 4d3d d947 82be
00000130: dd52 e9be c32c b93e 6a31 a1be 780b 12be
00000140: 249b 8a3e 4c7d 92be 884e 133d c0fa 19be
00000150: 9a47 acbd 59aa c0bd d8ce ebbd 9005 aabe
00000160: 9e29 2a3e b4e0 5b3e a34f ce3d 5d75 ff3c
00000170: 6115 38bd d625 17be 5088 4cbd ca89 9cbd
00000180: 4ee1 e23d 55dd b9bd 096a a03b 8855 d53e
00000190: 74be 853e 0e0f ebbe c670 613e 4af0 75bd
000001a0: b73a ee3d 0e6e f1bb 93a8 9fbe 1552 c0bd
000001b0: 8669 d9bc fe7f b8bb 1f7d 203d 545a 923c
000001c0: f019 73bd fe77 a8bd 5947 66bd e416 abbd
000001d0: 4eff 9abd 9f8a b0bd 6970 663d 082e 983d
000001e0: 5762 d1ba 2313 e9bd 9bfb d0bd 181a 09bd
000001f0: b938 993c 1ba0 82bc a2e2 273c d603 693d
00000200: 3775 a9bd 62f2 0c3b 5d95 08bd 0dec e4bb
00000210: 7225 963d 7536 21bd 435a f2bd 7ccf 17be
00000220: 1e3d 19be b338 0dbd e796 38be 7578 7bbe
00000230: 5f31 94bc 36ea e23c b0a7 e83e 6e47 1f3d
00000240: 0bab b9be 1968 89be 063e 7c3e c871 a4be
00000250: 116f 643e 4721 e8bd be1e c4bd 5230 f03e
00000260: 892e fbbe b5aa 05bd 8a8c 4dbe 8976 8abd
00000270: a303 733d bb2f fdbd 4f9e b1bc b1de c63d
00000280: 1d38 2ebe d175 ee3d 9760 e3bd 32dc 24be
00000290: a73a 29be d7e6 233e e64d 68be e328 57be
000002a0: d3cd 443e 602a 09be c81b acbd de16 7abd
000002b0: 6fc1 9e3c 600e d13d e1ab 493d 1fe2 c33d
000002c0: 6d39 083d 847f 673e 964a 66bd 9ebe 8cbe
000002d0: 5c15 103e f1b9 453d 30f7 423b abf9 aabd
000002e0: f540 68bd 4749 8e3d e512 09bd 5490 2d3d
000002f0: c7f3 1ebc 66f2 a2bd 125c b3bd a633 54be
00000300: 301b babc a061 a6bd 289d f1bc 04c3 bfbd
00000310: 40c8 c1bd 3bcc bcbd b41a a13c 14b5 893b
00000320: 2583 77bc 318e 043d c4f1 ac3d 4db7 823d
00000330: 402c 183d 0e60 ccbc 156b 5d3d a339 96bd
00000340: 954c 963d 4b0e 953d 7a5b 953d 076b 1dbc
00000350: 3f2b 63bd 6e49 9b3d f4e6 3abd ee2e f33c
00000360: e138 663d 1c1a fbbd 770b a8bc 4bce 03bd
00000370: 0e7e 7a3d 186d afbd 359b 2d3d c697 843d
00000380: 103f 313d 22a0 773e b03f e13c fcd6 ebbd
00000390: 4b1e 1d3e 4c4a 0e3e 0687 cd3d 88c7 65be
000003a0: 14f8 833c 8027 43ba 992c 633e c7fc 4cbc
000003b0: f773 273e d55a a6bc 8849 31be 0022 a13a
000003c0: 82f7 86be f37e acbd 0283 aa3d 023b bd3b
000003d0: 58f1 5b3e f13e c2bc 5fd4 10be 2852 e4bc
000003e0: 7028 503d 9992 b93d 9e28 eebc c8f5 9bbd
000003f0: 1566 0abe e32c 3fbe 4276 d3bd 5f31 c6bd
-0.12429427 0.012873557 0.038873915 0.06320958 0.11550968 -0.08951264 -0.031241339 -0.22522983
0.029434035 0.0059521864 -0.1843404 0.0688173 0.052182127 -0.03285279 -0.3409472 0.16563831
-0.0013915523 -0.7417328 -0.017151842 -0.07592753 0.100410365 -0.19082482 0.03792658 -0.011009376
-0.04340157 0.0552056 -0.14990911 -0.064366356 0.11174943 -0.046814594 -0.052831132 -0.006168828
-0.018937496 -0.0035422877 -0.057207745 0.066876516 -0.07447935 0.020879839 0.06645121 -0.009674692
-0.008204176 0.011761001 -0.044636168 -0.030779138 -0.063389696 -0.16642627 -0.29377922 0.2934514
-0.11993266 -0.03985919 0.20191559 0.14944996 -0.013645848 0.060839515 -0.3577051 -0.3488459
-0.43570876 -0.24496171 0.07411187 0.29122674 0.061887387 0.028436663 0.4571474 0.10336583
-0.004392124 -0.06324471 -0.15224458 0.17743006 -0.14759465 -0.06329266 0.07044528 -0.20359129
0.5627753 0.074119695 0.050153796 -0.2544544 -0.45571032 0.36166963 -0.31483012 -0.14262187
0.27071488 -0.2861122 0.035963565 -0.1503706 -0.084120944 -0.09407491 -0.11514062 -0.3320737
0.16617438 0.21472436 0.10073783 0.031183893 -0.044942264 -0.14760527 -0.049934685 -0.07643469
0.1107813 -0.09075419 0.004895453 0.41666818 0.26121867 -0.45909923 0.22015676 -0.06004361
0.11632293 -0.007367856 -0.311833 -0.09390656 -0.026539575 -0.005630492 0.039181825 0.017865337
-0.059350908 -0.08226012 -0.056220386 -0.083539754 -0.07568227 -0.0862019 0.056259546 0.07430655
-0.0015974742 -0.11380603 -0.1020424 -0.03347215 0.018703805 -0.015945485 0.010246905 0.056888424
-0.0827431 0.0021506776 -0.03334557 -0.0069861473 0.07331361 -0.039358575 -0.11833622 -0.14825243
-0.1496472 -0.0344779 -0.18026315 -0.2455767 -0.018089948 0.027699571 0.45440435 0.03888648
-0.36263308 -0.26837233 0.24633035 -0.32118058 0.22307993 -0.11334472 -0.09576176 0.46911865
-0.4905894 -0.032633502 -0.20073143 -0.0676089 0.05932964 -0.123626195 -0.021681933 0.09710444
-0.17013593 0.116435654 -0.111024074 -0.16099623 -0.1652628 0.16006027 -0.22685966 -0.21011691
0.1921914 -0.13395071 -0.08403736 -0.061056964 0.019379346 0.1020782 0.049236182 0.095646136
0.03325789 0.22607237 -0.056223474 -0.2748918 0.14070648 0.04827303 0.0029749386 -0.08348402
-0.056702573 0.0694757 -0.033465285 0.04237397 -0.009701676 -0.0795639 -0.087577954 -0.20722827
-0.022718042 -0.08124089 -0.029493883 -0.09363368 -0.09462023 -0.09218641 0.019666053 0.0042024944
-0.015106951 0.032362167 0.08444551 0.06382618 0.037151575 -0.024948146 0.0540572 -0.07335212
0.073388256 0.07278117 0.072928384 -0.009608037 -0.055461165 0.07582365 -0.04563041 0.029685464
0.056206588 -0.12260839 -0.02051328 -0.03217916 0.06115537 -0.0856573 0.042384345 0.06474261
0.04327303 0.2418218 0.027496189 -0.115156144 0.15343587 0.1389553 0.10035519 -0.22439396
0.016109504 -0.00074445456 0.22184981 -0.012511439 0.16352831 -0.020306984 -0.17313206 0.0012293458
-0.26360708 -0.08422651 0.08325769 0.0057748565 0.21478784 -0.023711653 -0.14143513 -0.027871206
0.050819814 0.090611644 -0.029072102 -0.076152384 -0.13515504 -0.18669467 -0.1032529 -0.096773855

conv_block_2.2.bias f4 [10]
00000000: cf08 06be f19d 363d eff7 b9bd a97e 33bd
00000010: 6ec7 9abd 0b36 143e 834b e4bc 1d82 5b3e
00000020: 4043 2a3c 02a6 293d
-0.13089298 0.04458422 -0.09080493 -0.043821964 -0.075575694 0.14473741 -0.027868038 0.21436353
0.01039201 0.041418083

classifier.1.weight f4 [10, 490]
00000000: b139 4bb9 91df 09be 95c1 063d 9715 fabd
00000010: c21e 353e 5c62 383e b849 ee3d 5659 01bd
00000020: 70f3 07bd e2c8 93bd ef04 bc3a 9304 7f3d
00000030: 82af 113e 86e9 a4bd 039a cbbd 097e 06be
00000040: d8f6 7ebd 2e95 8ebd 6d18 8d3d 5379 d03b
00000050: be67 90bd d3a5 70bd 9a7d 3f3d 24de 7fbd
00000060: 55d0 373c 7ed9 313e 3d2d 073e b3a9 04bd
00000070: 7b5a e3bd 87db 743c 9175 febd bd1e e9bd
00000080: 9c4e 033e 631c 7ebd 456a a63c ea2d 72bb
00000090: a9b0 f6bd a905 27be 7da2 b0bd 6872 46be
000000a0: e856 0fbd adda 753c ab70 1e3d cba3 e6bd
000000b0: 95f2 a6bd 898f 1a3d 397a ffbc c782 e33d
000000c0: 4504 8cbd fab8 e83d 597c e4bd 025d ff3d
000000d0: 51db 33be 632c 69bd 1540 2b3e 385f 3b3d
000000e0: a1b1 a63d d692 0cbe 780a 46bc da1e 75bc
000000f0: d56d 27bd 667d b53d f41f 42bd ec16 833d
00000100: c692 7f3e 6bad 73bd 39d8 b3bd 492a 363e
00000110: 5177 ddbb 69db df3c e139 4e3d 3894 8f3e
00000120: 8e3d 32bd 8284 3cbe fc52 843e a52b 743a
00000130: 140b 1abe 3ce8 723d 3f4c 0f3e d56b 3cbd
00000140: a026 2bbe 2220 1abd 3b20 7abd 5309 45be
00000150: 5bd2 e3bd bc62 2abd 1091 46bd 993c ecbd
00000160: 956a 04be 49e3 d6bd 07d2 113c a035 2d3d
00000170: 8300 103d c350 db3d 12be 8dbd 6627 fabc
00000180: 8c15 833c d19e 07bc ab76 6c3d 811c 813d
00000190: bd50 123d 4e49 143d bfd0 59bd 92b5 b13d
000001a0: b189 23bc 09fc 4f3c bab7 883d 488c 853d
000001b0: 13f0 333d 5cc6 6f3d 9a6d 353d b45a a53d
000001c0: b119 00bd d507 723d 86db 243d 9ad3 903c
000001d0: 803a 073c a8e6 213d 9379 8c3d c61f 6a3c
000001e0: 88f5 083c 7f8e 3d3c b0bb 893c 7f11 63bc
000001f0: 05f4 1dbd 2a66 4a3d 0004 0ebd cb70 a3bd
00000200: 3f01 a33d 14e6 8a3b 799f 0cbc d4b0 0ebc
00000210: d68d b53b b251 823c cc3c edbb 3381 183d
00000220: eb29 fc3c b945 2dbd 4e47 a0bc 69fc 0dbd
00000230: d888 b63c d6d7 803b ddef ca3c 887b 52bc
00000240: 4556 4bbb 25bc 72bd a18c 3abd 481b 583c
00000250: 5ddf 28be 88ba a5bd e257 a83c c3ce 783d
00000260: c156 ad3a 228d 22bd e32b 463b 94fb 93bd
00000270: adf2 cdbd dcee a0bd 4b36 853d dca0 14be
00000280: 462e 1ebe 0eeb 2ebe 6569 89bd a1f9 c1bd
00000290: 7083 c23c 9c01 bcba 0e2c d9bc bbeb 8f3e
000002a0: 92fa 5abd 8fb2 073e 803a 33bc e30b 2d3d
000002b0: 867b 383d eb21 f9ba b740 6f3e b49e 9dbc
000002c0: 7413 8a3e 76cb f3bb 01b7 78bd 8cdc 70bb
000002d0: e4bf 5dbd 2403 113e 648e 6bbd 6c00 a93e
000002e0: 805e 09bd ab27 99bd c26c de3c 0521 653d
000002f0: 048a d63d 9b40 8d3d 7e29 653d f1f1 39bd
00000300: 9324 81bb a2c8 4abe 04e8 9d3c b587 873c
00000310: 8f59 bcbc e58c cb3b 0446 16bd 3ee4 0a3d
00000320: 5d81 d03d 0725 bcbd eafc 6a3c 1198 23bb
00000330: b343 23bc 36dd 0a3e b063 8a3e fac3 083e
00000340: 4fda e6bc 1edb aabc 3b19 83bb 220f 813d
00000350: 9416 563d eb54 773e ae10 f63d 2d21 a23d
00000360: 7a55 173e 9019 4c3e 4a29 0a3d 63e2 02be
00000370: eb79 3d3d 71ee b6bd be24 653c 8949 e03d
00000380: 8b08 e63d 2e8b b2bd 8367 aebd 91f8 fd3d
00000390: c808 6fbd 718e 0dbe c946 15bd e068 213d
000003a0: ae29 d8bd c209 ba3b 3547 d33c bdd1 f9bd
000003b0: 8dd2 55bd 73b2 7cbd b6c0 5a3c bbc4 c73d
000003c0: 6e4a 92bc d631 edbd dd94 f43c 04ae 9fbd
000003d0: 36be 76bc 21e7 acbd 1631 aebb 348d 163e
000003e0: 2b20 b83c fba8 2abd a369 463e f3c2 823d
000003f0: 78f9 a73c 9dcc a8bc 1ecc eb3d 7205 a13d
-0.0001938108 -0.1346419 0.032899458 -0.12211149 0.17687514 0.18006271 0.116351545 -0.031579338
-0.033191144 -0.0721605 0.0014344732 0.06226022 0.14227107 -0.080523536 -0.09941485 -0.13134016
-0.062247127 -0.069620475 0.068894245 0.006362119 -0.07051037 -0.058751892 0.046750642 -0.06246771
0.011219104 0.17368123 0.13200851 -0.0323884 -0.11101242 0.0149449175 -0.12424768 -0.11382816
0.12822956 -0.06203879 0.020314345 -0.0036953636 -0.12045414 -0.16310753 -0.08624742 -0.1937958
-0.03499499 0.01500575 0.038681667 -0.1126171 -0.081517376 0.037734542 -0.03118621 0.11108928
-0.06836752 0.113634065 -0.1115653 0.12468912 -0.17564131 -0.056927096 0.16723664 0.045745105
0.08139349 -0.13727888 -0.012087457 -0.014960969 -0.04087623 0.088618085 -0.047393754 0.064008564
0.24958333 -0.059491556 -0.087814756 0.17789568 -0.0067586084 0.027326303 0.050348166 0.2804277
-0.043515734 -0.18409923 0.25844562 0.0009314365 -0.15043288 0.059303507 0.1399393 -0.046001274
-0.16713953 -0.0376283 -0.061065894 -0.19241838 -0.111241065 -0.041598067 -0.048478186 -0.115349956
-0.12931283 -0.1049257 0.008900172 0.04228747 0.035156738 0.107087635 -0.06921019 -0.030536365
0.016001485 -0.008277611 0.057730358 0.06304265 0.03572153 0.03620272 -0.05317759 0.0867721
-0.009981559 0.012694367 0.06675668 0.06520897 0.043930124 0.05853878 0.044293977 0.08073941
-0.0312745 0.0590895 0.040248416 0.017679024 0.008253694 0.03952661 0.06859126 0.014289802
0.00835932 0.011569618 0.01681313 -0.013859152 -0.038562793 0.049413837 -0.034671783 -0.07980498
0.07959222 0.004238853 -0.008582943 -0.008709151 0.00554059 0.015908096 -0.0072399136 0.03723259
0.030781707 -0.04230282 -0.01956525 -0.034664545 0.022282049 0.0039319796 0.024772579 -0.012846835
-0.0031026762 -0.05926146 -0.04554427 0.013190098 -0.16491456 -0.08092219 0.020549718 0.06074406
0.0013224707 -0.039685376 0.003023856 -0.07225719 -0.10056052 -0.07858059 0.06504496 -0.14514488
-0.1544734 -0.17081854 -0.067095555 -0.09471441 0.023744315 -0.0014343741 -0.026510265 0.28109536
-0.05346162 0.13251708 -0.01093924 0.042247664 0.045039676 -0.0019007301 0.2336453 -0.019240715
0.26967967 -0.007440026 -0.0607214 -0.003675255 -0.05413808 0.14161354 -0.05750884 0.33008134
-0.033537388 -0.07478269 0.02715147 0.055939693 0.10475543 0.06897088 0.055947773 -0.04539675
-0.0039411276 -0.19803098 0.019275673 0.016544202 -0.022991924 0.0062118643 -0.036687866 0.033909075
0.10180924 -0.0918675 0.014342526 -0.0024962465 -0.009964871 0.13560948 0.2702918 0.13356009
-0.02818027 -0.020856436 -0.0040008104 0.063017145 0.052267626 0.24153487 0.120149 0.07916484
0.147787 0.19931626 0.033730783 -0.12781672 0.04625885 -0.08932198 0.013985811 0.10951526
0.11232098 -0.08717953 -0.08515837 0.12400926 -0.058357984 -0.13823868 -0.03644446 0.039406657
-0.10554825 0.0056774328 0.02579079 -0.121982075 -0.05220275 -0.06169362 0.01335161 0.0975432
-0.017857756 -0.11581771 0.02985614 -0.07796863 -0.015059998 -0.08442522 -0.00531591 0.14702302
0.022476276 -0.04166506 0.19376235 0.0638484 0.020504698 -0.02060538 0.11513542 0.07862367

classifier.1.bias f4 [10]
00000000: 10c7 f23d 087d 2abe 635f e53e 6b24 05be
00000010: 5418 b3be c0b2 13be a6ea 833e d16e d1bc
00000020: 4296 de3d a945 1dbe
0.118543744 -0.16649258 0.44799337 -0.13002174 -0.34979498 -0.14423656 0.2576496 -0.025565537
0.10868503 -0.15358604
