models/tiny_vgg_model_v0.pth (torch, 36484 bytes, 10 tensors)

conv_block_1.0.weight f4 [10, 3, 3, 3]
00000000: 30b3 dfbc 9375 013e b269 5dbd 2bfe 88bd
00000010: 0968 943c 2816 b1bd d72e 373d bfc8 b13d
00000020: 389b f5bd c819 9a3d 27d0 473e 2892 0a3e
00000030: f0bb 4e3d f952 1a3e 585d a2bc bf4c c3bc
00000040: b6ea e6bd 0fd7 fabd 3c1f 383e 8664 8d3c
00000050: 04f2 753d f744 ad3c 7e0d 423e bae4 acbd
00000060: ef7d f4bc 32d5 8d3d 568c 75bd b148 2e3d
00000070: 2688 e53d 2af9 38be 34ac d23d 9608 333e
00000080: ef00 33be d422 21be 5f40 f4bd 33da 00be
00000090: aedb 35be 678e b33d 314a dabd 0288 36be
000000a0: 2c72 8fbc d721 d03d 5bce cabd 001e 91bd
000000b0: c4d4 21be 2b06 823a d237 22be a56f 39be
000000c0: 1470 b1bd 1824 3fbd b630 d63d 4564 6cbd
000000d0: 1e0f 84bd 58b6 823d 7516 2f3c d155 27bd
000000e0: 2184 cb3c 3550 493e b167 263d 24c7 c73c
000000f0: 4a5d fb3d 53a7 693c 5ee9 333e d2f6 27be
00000100: d2b7 b6bd 2f9d f4bd 9fc4 243e a171 123e
00000110: f4f2 353e ce85 0dbd 130a 09be f009 483e
00000120: eb02 eb3c 36e9 55bd f93a 35be 0a5f 033e
00000130: 1793 11be 3930 213e 25ae 273c 0585 403e
00000140: 5223 07be 01bb 8b3d 134f 8d3d a838 9ebd
00000150: f1e4 47bd f9b5 843d ec0e 743d 9e70 2bbc
00000160: 25d7 393b b32c 2ebe c389 c4bb 22f8 9cbd
00000170: 1032 613d f2de 05be 58bf 23be 0089 43bd
00000180: c094 323e 2365 e1bd 16a6 f1bd c8d7 ef3d
00000190: f667 1fbe dc6b 9d3d 6a1d dbbc 0395 14bc
000001a0: 1b95 d3bd becf 56bd 9635 eb3d 396d 313e
000001b0: 60d6 403d 8970 fa3d c771 b5bc d842 343e
000001c0: c6bb 9d3d 3bd4 c83d 4468 0d3e b5e4 883d
000001d0: 046c 12be b5b9 f8bd 0814 4a3c 346b ccbc
000001e0: fcb0 123d b3fb 92bd 35c6 9b3d 933b edbd
000001f0: 03d4 b7bb c244 943c 2f5b 0c3d 853a 2e3e
00000200: 5739 363e 2eed 76bd ec67 193c 943f d0bd
00000210: f031 30bd 09f1 e73c 86b0 1f3d 7e91 20be
00000220: 6214 203e 9e82 06bd acd4 37be 417f 58be
00000230: e45d babd 0e09 90bd 1381 4f3d 3e9e 30bd
00000240: 5363 a9bc 7713 22be e398 213d 037e 0dbe
00000250: c672 03be 1450 ecbd 6e29 54bc c8c1 19be
00000260: 950e 0a3e 7266 c8bb 3d8f d03d 860e edbd
00000270: 2fa6 f8bd 6c1b 7e3d ff81 5a3d 8f45 bf3d
00000280: 69ea f23d f792 d73c 64ba 133e 4239 4d3d
00000290: f373 a4bd 7d91 873d fb79 f8bc 7b5d 353e
000002a0: e50e db3d c884 fd3d f720 8cbd 6cc6 243d
000002b0: 4b4b 5bbd b5f3 5c3c d611 eabd ac4e bdbd
000002c0: dcb1 3c3e b337 debd ade4 debd 8602 263e
000002d0: 3534 35be b053 ecbd 8422 213e 4c6f 263e
000002e0: a920 bdbd ab6c 08be f9d7 c6bc 5eb0 463d
000002f0: dbe8 6dbd 1632 8ebc ad1a cdbd c39d 483e
00000300: 4929 9a3d a5e4 943d 8029 89bd b6bd 22be
00000310: 1cb7 fcbd b033 e8bd 9ad9 2a3d bd87 9f3d
00000320: 29d5 403e 0779 12be 820f a1bd 26b1 963c
00000330: 7543 26be 6d00 ebbd 68ed 96bd 9378 bf3d
00000340: 7264 03be eae1 29bc 2151 9c3d 273e 3f3e
00000350: a507 833c 2311 293d fba1 17be 4ef1 18be
00000360: 3674 1a3e 88ca f33d 2fcd 38be dd5e ed3d
00000370: 3e51 5e3d df20 ab3d cc88 aa3d 45b5 003e
00000380: a825 813d 039d b7bd db03 3a3e f442 f83d
00000390: 71ec b9bd 1d9a 2c3e 7bc4 b5bd 10dd 6ebd
000003a0: 052c ecbc 8656 db3c 1ce6 c9bd e8dd 0fbe
000003b0: 260b 02bc c3f2 61bd f6b9 463e 0e35 ccbd
000003c0: b253 953d c475 f43c 04a9 96bd 3db5 c2bc
000003d0: 5144 3d3e 0d0c aa3d 0184 033d b28f 403d
000003e0: 1f29 8e3c 2ce1 a2bd e733 94bd 6b1d 253e
000003f0: 21f3 ba3d 0585 3ebe 75ec ef3d 71d0 85bd
-0.027307123 0.12642507 -0.054055877 -0.06689104 0.018116014 -0.08646804 0.044722404 0.086808674
-0.11992496 0.07524449 0.19512998 0.13532317 0.0504722 0.15070714 -0.0198199 -0.023840306
-0.11275236 -0.122480504 0.17980665 0.017259847 0.060045257 0.021151049 0.1895046 -0.08442064
-0.029845206 0.069254294 -0.059948288 0.042549793 0.11207609 -0.18063799 0.102867514 0.17483744
-0.17480825 -0.15735942 -0.1192634 -0.12583236 -0.17759582 0.087673955 -0.10658682 -0.1782532
-0.017510496 0.101627044 -0.099026404 -0.070858 -0.1580382 0.0009920051 -0.15841606 -0.18108995
-0.08663955 -0.04666528 0.104585096 -0.057712812 -0.06448196 0.063824356 0.0106865065 -0.040853325
0.024843277 0.19659503 0.04062623 0.02438695 0.12273653 0.014261085 0.17569491 -0.16402748
-0.0892178 -0.11944043 0.1609063 0.14301158 0.1776846 -0.034551434 -0.1338275 0.19535041
0.028687915 -0.05222436 -0.17698278 0.12829223 -0.14216267 0.15741052 0.01023439 0.18800743
-0.13197067 0.068227775 0.06899848 -0.0772565 -0.04880232 0.06480021 0.059584543 -0.010463862
0.0028356996 -0.17009239 -0.005997868 -0.07664515 0.054979384 -0.13073328 -0.1599096 -0.047738075
0.17439556 -0.110056184 -0.117992565 0.11711079 -0.15567002 0.07686588 -0.026747424 -0.00906873
-0.10331174 -0.052444212 0.1148483 0.17326821 0.047079444 0.12228496 -0.02214898 0.17603624
0.077018306 0.09806105 0.13809305 0.066842474 -0.14299017 -0.12144796 0.012333877 -0.024953462
0.035813317 -0.07176914 0.07606164 -0.115836285 -0.0056099906 0.018099193 0.034266647 0.17014511
0.17795311 -0.060284786 0.009363156 -0.101683766 -0.043016374 0.028313177 0.038986705 -0.15680501
0.15632775 -0.03283941 -0.17952222 -0.21142294 -0.090999395 -0.07032977 0.050660204 -0.04311966
-0.020677244 -0.15827738 0.039452445 -0.13817601 -0.12836751 -0.11538711 -0.012949331 -0.15015328
0.13482125 -0.006115728 0.101835705 -0.11575036 -0.12141072 0.06203787 0.05334663 0.09339439
0.118611164 0.026315195 0.14426571 0.050103433 -0.08029928 0.066195466 -0.030331602 0.17711441
0.106962 0.12378842 -0.06842225 0.040228292 -0.0535386 0.013485839 -0.11429183 -0.09243521
0.18427223 -0.108504675 -0.1088346 0.162119 -0.17695697 -0.115393996 0.15735823 0.16253394
-0.09234745 -0.13322704 -0.024272906 0.04850804 -0.058083396 -0.017357867 -0.100148536 0.19591431
0.07527406 0.07270173 -0.066973686 -0.15892681 -0.12339613 -0.113379836 0.041711427 0.07789562
0.18831314 -0.14303981 -0.07864286 0.018395018 -0.1623667 -0.114746906 -0.073695004 0.093491696
-0.12831286 -0.0103688035 0.076326616 0.18676053 0.015994856 0.04127611 -0.14807884 -0.149358
0.15083393 0.11903864 -0.18047021 0.11590359 0.054276697 0.08355879 0.08326873 0.12569149
0.063060105 -0.089654945 0.18165533 0.12122145 -0.09078301 0.16855665 -0.08875366 -0.05831629
-0.028829584 0.026774656 -0.09858343 -0.14049494 -0.007937228 -0.055163156 0.19406876 -0.09971057
0.07291354 0.029841311 -0.07356456 -0.023768062 0.18483092 0.0830308 0.03210831 0.04701204
0.017353592 -0.079531044 -0.07236462 0.16124503 0.091284044 -0.1860543 0.117150225 -0.06533898

conv_block_1.0.bias f4 [10]
00000000: 0379 4abd f32e f9bc 2b54 7b3d d88a 153e
00000010: 9813 85bd 3e2f 733d 4474 f63d a953 4c3e
00000020: 8635 733d 7e56 23be
-0.049431812 -0.030417895 0.061359566 0.14603746 -0.06497878 0.059371226 0.12033895 0.19953789
0.059377216 -0.15950963

conv_block_1.2.weight f4 [10, 10, 3, 3]
00000000: dd49 b0bd 6027 913d fa0e c1bd d8dc f73b
00000010: 7c21 d63d 002d 31ba 4593 8b3c d45e efbc
00000020: 26b5 79ba 9bfa d93b acaf 80bd 50b5 a23d
00000030: e3f2 38bc 6be9 30bd 2755 5a3d 3e67 9fbc
00000040: 7367 813d 83f9 a43c 0f09 05bd 060e a13d
00000050: b744 b1bd c334 4f3c d8e2 cebd 025a 8f3d
00000060: 12f5 3ebd f887 ee3c efe1 1f3d 4d13 103d
00000070: bd7a a5bd 48bc a9bd b107 653d cadc 373d
00000080: fbca d4bd 18fe 4dbd 9ced 61bc c176 533d
00000090: be4f 6dbc cf80 b7bd bbb3 06bd d7b7 993a
000000a0: 0f53 7c3d b9f8 d63d fa39 e53d da7b b3bc
000000b0: 19aa 49bd ecfc 213d 0a1f 2abd 14e5 e1bd
000000c0: ce9f ab3d eb6c a53d 3b4c 9bbd fc40 443c
000000d0: 1f23 c63c 96a3 a6bc 441c 623d f484 d6bc
000000e0: 75ec 8ebd 3b85 493d e2e0 a03d 6b58 9cbd
000000f0: a788 febc 7189 54bd cc46 b23a bbc3 12bd
00000100: 7fd5 84bd cc61 c4bd 77d8 67bd 19a7 26bd
00000110: e4d8 f9bb b705 8b3d dbc8 44bd c0b5 4c3d
00000120: f4e2 833d a5a5 063c a40f 373d dae9 93bc
00000130: 336c 2abd 69f8 d93d 5ee3 d53d 714f aabd
00000140: 9208 db3c 7b8a 8bbc cc98 a6bd 3b2b dabc
00000150: a34e 8fba d9c3 79bd 865b 40bd 47d4 bcbb
00000160: 40e3 2fbd 46d7 04bc ca06 a7bd 5d00 4f3d
00000170: 42ba 233c 557b 84bd ebae 41bd b415 45bd
00000180: 6b21 a23d 8a6a bcbb 66e3 ea3c 6af1 163d
00000190: e02d f6bc edc3 acbd 75eb 32bd a35b 03bd
000001a0: 80f0 743d 17e6 5abc 085a d2bd 5d2e 54bd
000001b0: 5c75 13bd 02bd 8c3d 5e31 133d fab5 8a3c
000001c0: f335 afbd 1339 01bd 7e42 cabd 9548 873c
000001d0: 572e 4fbc 231f 34bc a7a1 bebd 3fc5 50bd
000001e0: 6f5c 183d 6de0 d6bd e218 81bb 688d 0f3c
000001f0: 69e7 b6bd 071e a33b 806e 0b3c 0110 33bd
00000200: ef17 413c 70a4 cfbd f621 a1bd 1eee 873d
00000210: 35b7 99bd 4cd0 f8bb 70c8 bebd 08ef 7cbc
00000220: c7fe 55bc 1b50 adbd 4007 373c fc23 943d
00000230: 9a1c 4fbd c1de b3bd ae53 f2bb cd7e 82bd
00000240: 8095 85bd 74f7 ca3d b485 913d 9d03 bc3d
00000250: aeb1 96bd 1ea9 b93c 2cc4 cabd ce23 c63d
00000260: 6608 bcbb 63bb b1bd 1270 2cbd 0b30 ccbd
00000270: 517e b33d a05f b13c 7f15 a23d 2e43 1e3d
00000280: b3eb b4bd 56d0 dcbd c9b2 b2bd db91 aa3d
00000290: 4e53 783d 67d2 8d3c 5732 8a3d e25c 13bd
000002a0: 910c d4bd 4770 9abd f2a7 c2bd 9081 513d
000002b0: 4960 8cbc 63ad 7e3d c356 933d dc10 53bb
000002c0: d9de b33d 2319 ae3d 33c1 013d 5c27 79bd
000002d0: 7b82 9cbd 4ab8 babd a784 e4bd a91b 953d
000002e0: 24a2 a13c 4e5e d43c a5fa 4e3c 75e6 a1bd
000002f0: 2aac c73d 6e5a 91bd eb67 9cbd 7c95 cebd
00000300: 86bd c6bd a375 873d 128e 433c 0017 3c3d
00000310: 0573 7d3d 8b04 553d b715 91bc 3605 40bd
00000320: 9d35 fabc 5c83 9e3b 0d26 cbbd ef2c 3cbd
00000330: 0699 d6bd afc3 1abd 430a 3f3d 58f9 c33d
00000340: 8f8f b5bb 8ca0 d4bb feac 903d 06e5 d7bd
00000350: 0064 2ebc fb1b bf3d e2dd d5bc b339 9fbd
00000360: fb12 ad3d 81f0 693d e12c 57bd fa97 39bd
00000370: d401 c03d e256 70bd c985 d5bd 695f a73d
00000380: 3d11 9cbc eaee d8bb 3e2d a93c 31fc 653d
00000390: 0ad0 c6bd 214d c03d 6834 8b3d 0114 743c
000003a0: e567 1c3d 9c9d 033d 42de 233d 9444 293c
000003b0: 6071 a4bd 386e c4bd 6821 8c3d fe1c 6b3d
000003c0: 98a7 75bc a41d f9bc 3f38 cdbc bc0c 35bd
000003d0: 51a6 65bd 2f1c e5bd 1716 efbc 3ffd d4bd
000003e0: b8f1 073d 31ee 2dbc e320 bd3d 8beb c63c
000003f0: b31a a8bd e654 19bd 6144 9bbd 1b1a 973d
-0.08607838 0.07087588 -0.09426685 0.0075641684 0.104556054 -0.00067587197 0.017037997 -0.029220022
-0.00095255894 0.006652189 -0.06283507 0.07944739 -0.011288377 -0.043191355 0.053303864 -0.01945841
0.063185595 0.020138508 -0.032479342 0.07864003 -0.086556844 0.012646857 -0.10101861 0.069995895
-0.046620436 0.02911757 0.039033826 0.035174657 -0.08080051 -0.08287865 0.05591554 0.044888295
-0.10390278 -0.05029115 -0.013789561 0.051626924 -0.014484344 -0.08960115 -0.032886248 0.0011727762
0.06160265 0.10496659 0.11192699 -0.021909643 -0.049234483 0.039547846 -0.041533507 -0.11030021
0.0838009 0.08077415 -0.07582899 0.011978384 0.024186669 -0.020341676 0.055202737 -0.026186444
-0.06978694 0.049199324 0.07855393 -0.07634052 -0.03107102 -0.051888887 0.0013601421 -0.035831194
-0.06486034 -0.09588966 -0.05660292 -0.0406867 -0.0076247323 0.067881994 -0.048043113 0.049978018
0.06439772 0.008218204 0.04469265 -0.018055845 -0.041607093 0.106430836 0.104437575 -0.083159335
0.026737485 -0.017033806 -0.081346124 -0.026631942 -0.001093347 -0.06097779 -0.046962284 -0.00576261
-0.042941332 -0.008107966 -0.08155592 0.050537456 0.009993138 -0.06468836 -0.047285955 -0.0481164
0.0791653 -0.005750005 0.028672885 0.036851324 -0.030051172 -0.084358074 -0.04368158 -0.032069813
0.05979967 -0.013360522 -0.10271078 -0.051802028 -0.036000594 0.06871988 0.035935752 0.016932476
-0.08555212 -0.03154857 -0.09875964 0.016514102 -0.012645326 -0.010993752 -0.093081765 -0.05096936
0.037197527 -0.104920246 -0.003939734 0.008761741 -0.08930857 0.004977945 0.008510232 -0.043716434
0.011785491 -0.10138786 -0.07867806 0.06637214 -0.07505647 -0.0075931903 -0.09315574 -0.015437849
-0.013061232 -0.084625445 0.011171162 0.07233426 -0.050564386 -0.08782721 -0.0073952293 -0.063718416
-0.065226555 0.09910479 0.0710558 0.09180377 -0.073581085 0.02266365 -0.09900698 0.09674798
-0.005738306 -0.08678319 -0.042099066 -0.09970101 0.08764327 0.021652043 0.07914256 0.038638286
-0.088340186 -0.107819244 -0.08725507 0.08328601 0.06062632 0.017312242 0.06747883 -0.03597725
-0.10353959 -0.075409465 -0.09504689 0.05114895 -0.017135756 0.062177073 0.07194283 -0.0032206094
0.08782739 0.08500888 0.03167839 -0.06082855 -0.07642075 -0.091171816 -0.11158114 0.072806664
0.019730635 0.025923874 0.0126330005 -0.07905284 0.097496346 -0.07097326 -0.07637008 -0.10087106
-0.097041175 0.06614234 0.011935728 0.045920372 0.06187727 0.052006286 -0.01771055 -0.04687997
-0.030543143 0.0048374366 -0.09919367 -0.04594129 -0.10478406 -0.037784275 0.046640646 0.09569043
-0.005540795 -0.0064888652 0.07064246 -0.1054173 -0.010643959 0.09331509 -0.026106779 -0.07774677
0.08450886 0.057114128 -0.052533034 -0.04531095 0.09375349 -0.058676608 -0.10425908 0.08172495
-0.019051189 -0.0066202777 0.020651456 0.05614871 -0.09707649 0.09389711 0.06797105 0.014897347
0.03818502 0.03213273 0.040006883 0.010331292 -0.08029437 -0.09591335 0.06842309 0.057400696
-0.014993571 -0.030409642 -0.025051234 -0.044201598 -0.056066815 -0.11187016 -0.029185338 -0.10399865
0.033189505 -0.010615871 0.09234788 0.024282238 -0.082082175 -0.03743448 -0.075814016 0.07378026

conv_block_1.2.bias f4 [10]
00000000: 09db 0d3d 213c 48bd 2b0b b83c ff46 8abd
00000010: 4d8b b03c 901f 91bd 56eb c33d baf4 c53d
00000020: c01c 7cbd 76f1 443d
0.034632716 -0.04888547 0.022466263 -0.06751823 0.021550799 -0.07086098 0.09566371 0.096658185
-0.061550856 0.048081838

conv_block_2.0.weight f4 [10, 10, 3, 3]
00000000: e6b0 a33d 30a1 29bd b074 b23c 2675 4fbd
00000010: dbb7 59bd 5f88 703d 95c2 ab3d 96cd 9c3c
00000020: e954 0dbd 1422 64bd e651 ccbd 7dcc be3d
00000030: 7e96 85bd 7e0f d5bb 0a4a 8e3d db57 36bc
00000040: 1b76 be3a ac72 993d 2dc3 90bd c074 b93a
00000050: 11c2 953d 1e1d d33c bcde c73c fa9b 703d
00000060: 62e3 4c3d bcb1 323d 06e4 1a3d de44 393d
00000070: 8594 d53b 81ae 733d feb9 8b3d 2517 d1bd
00000080: c9bf 5ebd 0482 7dbd 9e04 933d 6906 87bd
00000090: 03d8 30bc 2d10 9b3c 7ef5 a3bc ebc7 9e3a
000000a0: 43ad d9bc 7fd1 95bd 10ec 70bc 9c08 a63d
000000b0: 3235 abbc 8642 a73d f84e 97bd c31f fd3c
000000c0: 0230 08bc ea39 273c e14a 56bc 97a0 383d
000000d0: d019 afbb 8786 38bc c329 883d 7a9c c9bd
000000e0: 4399 3a3c fa86 f03c b782 05bd 9b27 183d
000000f0: 5b9f 493d 506d 4a3d 2427 bfbd 39dd bc3c
00000100: 03d6 08bd 23eb ce3d ba0e babd 0e8c 96bd
00000110: f53e 123d b6b2 8fbd d33c 9b3d 6c7b 52bc
00000120: 2e36 d33c 78c5 b5bc a506 8b3c 5534 203d
00000130: f9fb 433d 9fc7 0e3d 1a98 c8bd 2991 d4bd
00000140: cf7c bbbd aa4a d0bd 922b 79bb ea1f 4dbd
00000150: bb2d 9c3d 4816 edbc 56a5 b0bd fdc7 4b3c
00000160: c206 963d d23e c93d e05e 353c 4191 39bd
00000170: de54 a2bd 2bf7 a83b 5857 303d 302d dc3d
00000180: 4646 77bc 7c95 0e3d 52aa d63d 9e7e 6b3c
00000190: b4e3 bc3d b703 b53d db50 61bd 4ded 273d
000001a0: 954a a8bc 7158 e73c 645a 75bd 1651 663d
000001b0: 0bca c8bd b5d3 5dbb 6110 423d 3d0e 183d
000001c0: 9c74 a73d 480c 663d 0207 cabd a074 c33c
000001d0: e960 d53d 2df4 50bd c4ab 4a3d 8c3c 3c3d
000001e0: 5d7e 20bd 631d 8ebd 1f6f 46bd 09f8 603c
000001f0: 529c 473d 396b a53b 11b4 ba3d 2c80 fbbc
00000200: 2aa5 c43d 660d 6cbd ebc7 5a3d 2f72 e53d
00000210: 84c4 903c 1bf9 4e3c 9523 f83c e288 933d
00000220: 20ad a53d ee2a 873d 745e 96bd ec66 963d
00000230: 12f0 16bd 534c 02bd 4695 9e3d 3f23 4c3d
00000240: 67d5 b23d af95 dabc ba82 823d 4f3c c0bc
00000250: abb7 18bd c1c3 50bd 505a 993d 271d 9cbc
00000260: 8532 c23c 047d 9bbc 11d9 fd3c 7541 723d
00000270: 28e8 5ebc ead1 8a3d 5911 3eba 4e99 ffbb
00000280: 3279 f13c fe0f 253d 048a 803d ed83 3b3d
00000290: 5c26 653d 2943 eb3d b195 e13d e89d c1bd
000002a0: 9696 d9bc b9cf 8ebd 53ee c33d 05cb 663c
000002b0: 3340 d8bd d1d3 80bd 3414 abbd 30aa 8cbd
000002c0: 7e49 53bc d729 033d c74f 76bd 468b 7a3d
000002d0: b884 aa3d b10c b23d 10eb 533d 54cc a8bd
000002e0: 859a b4bd a038 8b3d c48a 5e3d 55a0 c13d
000002f0: ef54 7cbd 215e 97bd 7f25 0abd 5b13 573d
00000300: acfb 0f3d d1cb 673d d40c 8abd fdd0 aabd
00000310: 83ec c33d 0ecd cc3c bc2a a6bc 7bf1 a13c
00000320: 7e13 be3d 961a 2d3d 6bbb 413d 6de4 7f3d
00000330: c1ef e33c fc8d edbc e3fd e93c ce27 e0bd
00000340: 2bb6 943d 0c8c 65bd cb76 7dbd f51f e43a
00000350: f74a 8cbd f8a6 9bbc 329b 683d 4c59 6d3d
00000360: 18c2 e0bd 5ac2 08bd f278 c5ba e068 e4bc
00000370: b04a e7bb b972 1fbd 0fea 8fbd 5635 02bd
00000380: 6054 133d 5325 7239 26f1 7c3d bf40 1dbc
00000390: cbcc f5bc 0c62 14bd bd7d 343d 48ef 623d
000003a0: e445 cc3d 8bc7 a0bc ceea a4bd 5d29 1bbc
000003b0: e478 b13d 859c 44bd 626c b3bd 0cfe d13d
000003c0: d09c be3d bd77 bbbc 57de 1abd c548 b73d
000003d0: 843a 61bd a6c9 9cbd 6010 e43d f177 f43d
000003e0: 7f13 83bd 4370 e53d 081b 523d ce6f bf3b
000003f0: af01 a7bd 0282 90bd c36d a2bd 4c96 ddbd
0.07992725 -0.041413486 0.021784157 -0.05064883 -0.053153854 0.058723804 0.08386723 0.019141
-0.034504805 -0.055696562 -0.099765584 0.09316347 -0.06522845 -0.006502091 0.069477156 -0.011129345
0.0014531048 0.07492575 -0.07068477 0.0014149174 0.07312406 0.02577072 0.0243982 0.0587425
0.050021537 0.043626532 0.037815116 0.045231692 0.006517949 0.05949259 0.068225846 -0.102094926
-0.05438212 -0.06189157 0.07178615 -0.065930195 -0.010793689 0.018928612 -0.02001452 0.0012114024
-0.026571875 -0.07315349 -0.014704719 0.08107111 -0.020899389 0.08166985 -0.07388109 0.030898934
-0.008312227 0.010206679 -0.013079376 0.045075025 -0.0053436533 -0.011262543 0.066485904 -0.09844299
0.0113890795 0.029361237 -0.032595363 0.037147146 0.04922424 0.049420655 -0.09333637 0.023054706
-0.033407222 0.101034425 -0.0908484 -0.07350932 0.03570457 -0.07016508 0.07579961 -0.012846809
0.02578267 -0.022188887 0.016970942 0.039112408 0.04784772 0.034858342 -0.09794636 -0.103792496
-0.09154665 -0.10170491 -0.0038020355 -0.050079264 0.0762591 -0.028941289 -0.08625285 0.012437818
0.07325508 0.09826435 0.011069983 -0.04530454 -0.079263434 0.005156418 0.043052047 0.10750806
-0.015092438 0.03481053 0.10481705 0.01437345 0.092231184 0.08838599 -0.05500875 0.040997792
-0.020543376 0.028240414 -0.059900656 0.056229673 -0.09804162 -0.003384811 0.0473789 0.037122954
0.08176538 0.056164056 -0.09864618 0.023859322 0.10418875 -0.051014114 0.049480215 0.04595618
-0.03918301 -0.06939199 -0.048445817 0.013731011 0.048733063 0.0050481823 0.09116376 -0.030700766
0.09601815 -0.057629965 0.053413313 0.112034194 0.017671831 0.012632634 0.030290404 0.07203843
0.080896616 0.06599985 -0.07342234 0.073438495 -0.036850043 -0.03181107 0.077433154 0.0498383
0.087321095 -0.026682703 0.0637259 -0.023466257 -0.037284534 -0.050967935 0.07487929 -0.01905687
0.02370573 -0.01898051 0.030987294 0.059144456 -0.013605155 0.06778319 -0.000725051 -0.0078002578
0.029476736 0.040298454 0.062763244 0.04578011 0.055944785 0.11487419 0.110148795 -0.09453946
-0.026561063 -0.06973214 0.09566941 0.01408649 -0.1055912 -0.06290401 -0.08353463 -0.06868398
-0.01289594 0.032022323 -0.060134675 0.061167978 0.08326095 0.08693827 0.051737845 -0.082420975
-0.08818535 0.0679791 0.054331556 0.09454409 -0.061604436 -0.073910005 -0.033727165 0.052508693
0.035152122 0.05659086 -0.06740728 -0.083406426 0.095665954 0.025000121 -0.02028405 0.019768467
0.092810616 0.042261682 0.047297876 0.062473703 0.027824285 -0.028998367 0.028563445 -0.10945092
0.07261308 -0.056041762 -0.061880868 0.0017404543 -0.06850236 -0.019000515 0.05678863 0.05794649
-0.109745204 -0.033388473 -0.0015065952 -0.02788204 -0.007058464 -0.038927767 -0.07027065 -0.031789146
0.03596914 0.00023092823 0.061753415 -0.009597956 -0.03000488 -0.036226317 0.044065226 0.055403978
0.09974268 -0.0196264 -0.08052598 -0.009470311 0.08665636 -0.04800083 -0.08760907 0.10253534
0.09307253 -0.022884244 -0.037809696 0.089494266 -0.054987445 -0.07655649 0.11135936 0.119369395
-0.06400203 0.11203053 0.05129531 0.0058421856 -0.08154618 -0.07056047 -0.07931092 -0.108196825

conv_block_2.0.bias f4 [10]
00000000: f0b9 cfbd f702 1fbd 87dd d83d a009 983d
00000010: 8c0d 013c 1093 bdbd d492 8dba cf41 343d
00000020: bc0e df3d 1f00 c53d
-0.10142887 -0.038821187 0.10589128 0.07423711 0.007876765 -0.092565656 -0.0010801204 0.044008072
0.10891482 0.09619164

conv_block_2.2.weight f4 [10, 10, 3, 3]
00000000: d73c 043d 4495 a63d f51b d5bc 3df9 d53d
00000010: 51b1 45bd cfbf c8bc f0ee 4b3d 76a8 883d
00000020: 8cd1 febc 3cf0 b2bd 1d39 bcbd 34c6 1dbc
00000030: 4d52 9a3d 8b4b 853d 2d10 4a3d a986 06bd
00000040: 7a02 533d f352 3fbd 20bd 4c3c b0f3 523d
00000050: c9da 80bd c70d 063d e1a8 5c3c 6ad0 743b
00000060: 26de b13d 8666 b93d 06b1 b2bc 0f39 7abc
00000070: f492 dd3d 04e7 a63d 52cf a13d dfe0 ae3b
00000080: 138e 3fbd bb95 b5bc 8be0 d13d a2a8 ec3d
00000090: 1394 06bc 7fd9 c9bd a607 48bb c393 68bd
000000a0: c79c 58bc b6ba edbc d93a c73c 47ae acbd
000000b0: 414f 1bbd 8f8e d23d f829 8cbd ea0c 303d
000000c0: 4e66 c53d bad4 01bd 00e6 75bd 5702 403d
000000d0: 34ea 713d 26d2 11bd a424 b6bd 5069 bf3c
000000e0: 8815 4c3d d3f9 b1bd 1d78 92bb 5dd2 913d
000000f0: ca5d eabc a768 873d 4a5a 09bd f2fe 4abd
00000100: 32a9 2f3d 998f 1bbd ab7c 8ebb d283 df3d
00000110: e5e5 83bd 8080 e53d 531c 09bc 7cd3 bc3d
00000120: b8b2 d13d 6878 c73b 20a0 9abd b721 f23d
00000130: fd5f b0bd 6063 d03d ae70 713d 3ec1 97bd
00000140: f480 82bc 88e2 e13c 7e28 0e3c e950 103d
00000150: 0430 823d c0c5 a63d cfc1 473d 7114 50bd
00000160: 01dd a6bd 626f e13d 4620 c8bc 1a7b bd3c
00000170: 9da9 183d b1fb 31bd 527e bcbd 6e9c cbbc
00000180: bd38 80bd 1a94 6cbd 6908 62bd 121e 29bd
00000190: 724c 1d3c 2097 81bd 9eb2 eabc 9bc7 cdbd
000001a0: 3b00 b33d f8d8 1a3d eb34 9f3d af6d b43d
000001b0: e4bf 3fbd 6b56 b9bc c869 cd3c 6cca 583d
000001c0: 4403 bbbd f6eb 29bd d56f 423d 9078 bf3d
000001d0: 82c8 3fbd dc96 c0b9 6922 903d 5108 2cbd
000001e0: 1e0e b43d aaa8 9a3d ea99 cbbd 1153 64bd
000001f0: 4193 17ba 8d43 733d 7c53 6b3d b281 2bbd
00000200: 6862 7abd b919 0fbd b1f7 083d ad16 a7bd
00000210: 4586 47bc 513b b83d 694c a4bd 0754 b8bd
00000220: eb2c 6bbc 7eef cdbd 34ad 83bd 3aaa b5bd
00000230: 320c b3bd 7d0d f8bb 107d ccbd 5180 de3b
00000240: 699c 39bd 9263 a7bd 7c5e 56bc 984f ae3d
00000250: 995d b5bd 5fb3 bc3d ecbb bd3d c555 98bd
00000260: a12c d03d 7d30 70bc 5e32 b23d 885d 403d
00000270: 1d1c 3dbd 0164 1f3d e8c4 b2bb 26b6 813d
00000280: 2a9c b33d 4ff1 4fbc a418 103d ee25 f9bc
00000290: 45f8 2d3d e0a8 bbbd 80d2 36bc 4354 6d3d
000002a0: 3ff6 8fbd 0227 a43d 0328 a23d 0eba 433d
000002b0: c9b5 b6bd 9e90 8dbd 40b7 f63c b140 d5bc
000002c0: 5fa1 4e3d 317b c2bd b767 c0bc 90e2 323d
000002d0: beac 9fbd e519 d53d 8a6a 993d 8f40 9d3c
000002e0: 0981 cb3d 1cdc c0bd c164 c73d f455 863c
000002f0: c9be a4bd 0663 4ebd ce3e 7d3d cda4 9abd
00000300: 853e cf3c 771c d23d e49c 813c 06f2 e7bc
00000310: 21b3 9a3d d0bf e63b 7a45 c2bd a351 803d
00000320: 03f1 9a3d bd4f 1cbd cfa2 623d 7b29 95bc
00000330: 6ac7 9bbd 9a7b 75bd 5881 8ebd 3d5b 64bd
00000340: 10b4 bfbd db0d 3f3d e6d9 94bd 948f d5bd
00000350: da76 983d 20c2 683d a892 d8bb 435e 4bbd
00000360: f921 be3c 6f85 e5bd f2eb 893d 9a77 37bd
00000370: 2668 b43d 4422 95bd 6c30 bebc 60b6 8cbd
00000380: cd49 363c 21f0 263d de1e 91bd d5bf b13d
00000390: cf85 62bd 5372 bebd 96e4 7ebd 26fd 843d
000003a0: dc87 bebd 05d4 ba3d 00b8 79bd 5ed3 fabb
000003b0: 633f 833d 57d9 383d ca52 663d 148a d13d
000003c0: 1e48 00bd 7a7c fd3c 1785 173d 1358 053c
000003d0: 8d42 6fbd 8e38 bcbd 8428 633c edda 5fbd
000003e0: f59c bfbd cb8c 8ebd 3155 93bd 8936 b8bd
000003f0: a403 dabd 201f 623d def7 223c b6d1 abbb
0.032284584 0.08133939 -0.026014308 0.10447929 -0.048264805 -0.024505524 0.049788415 0.066727564
-0.03110578 -0.08737227 -0.09190581 -0.009629775 0.07535229 0.06508549 0.049331833 -0.032843266
0.051516034 -0.046709966 0.012496263 0.05150193 -0.0629173 0.032727983 0.013467998 0.003735567
0.086849496 0.09052758 -0.021812927 -0.015272393 0.10819045 0.081495315 0.07900871 0.0053368653
-0.046766352 -0.022166124 0.10247906 0.11555602 -0.008214015 -0.09855937 -0.0030522137 -0.05678154
-0.013220972 -0.029019695 0.024320053 -0.08431678 -0.03791738 0.10281097 -0.068439424 0.042981066
0.09638654 -0.031697012 -0.0600338 0.04687723 0.059061244 -0.035600804 -0.088937074 0.023365647
0.04982522 -0.08690228 -0.004469885 0.07120202 -0.028609175 0.06611758 -0.033533372 -0.04955954
0.042885967 -0.037978742 -0.0043483577 0.109138146 -0.06440333 0.1120615 -0.008368569 0.09220025
0.10239166 0.0060873516 -0.07550073 0.11822837 -0.08612058 0.10175204 0.05894535 -0.07409905
-0.01593063 0.027573839 0.008676646 0.035233412 0.063568145 0.081431866 0.048768815 -0.050800744
-0.08147622 0.11007573 -0.024429452 0.023129988 0.03727113 -0.043452922 -0.09203781 -0.024854865
-0.06260822 -0.05775843 -0.0551838 -0.041288443 0.0096007455 -0.06327653 -0.028649624 -0.10047837
0.08740278 0.037804574 0.07773765 0.08809983 -0.04681386 -0.022624215 0.025074854 0.05292742
-0.09131482 -0.041484796 0.047469933 0.09349167 -0.04682208 -0.00036733493 0.07037813 -0.04200012
0.08791755 0.07551701 -0.09941466 -0.05574328 -0.00057821354 0.059390593 0.057452664 -0.041871734
-0.061129004 -0.03493664 0.033439342 -0.08158622 -0.012178008 0.08995689 -0.080223866 -0.09000402
-0.014353971 -0.10055445 -0.0642952 -0.08870359 -0.087425604 -0.0075699673 -0.09984791 0.006790199
-0.04531518 -0.081732884 -0.01308405 0.08511275 -0.08855743 0.092139 0.09264359 -0.07438234
0.10164762 -0.014659998 0.08701013 0.0469642 -0.04616939 0.03891373 -0.005455602 0.0633357
0.0877002 -0.01269181 0.03517975 -0.030413594 0.042473096 -0.0916307 -0.011158586 0.057941686
-0.070293896 0.08015253 0.07917788 0.047784857 -0.089213915 -0.06912349 0.030116677 -0.026031824
0.050446864 -0.09496153 -0.023486955 0.043673098 -0.0779662 0.104053296 0.07491024 0.019195823
0.09936721 -0.094169825 0.09736014 0.016398408 -0.08044202 -0.050387405 0.061827473 -0.075509645
0.025298366 0.102593355 0.015821882 -0.028313648 0.075536974 0.007041909 -0.09485908 0.06265571
0.075655006 -0.03816198 0.055331048 -0.018208256 -0.076063946 -0.05993233 -0.06958264 -0.055751074
-0.09360516 0.046644073 -0.07268123 -0.10427776 0.07444544 0.056825757 -0.0066092797 -0.04965044
0.023209559 -0.11207091 0.06734456 -0.044791795 0.08808927 -0.07281926 -0.023216449 -0.06870723
0.011125994 0.04075635 -0.070859656 0.08679167 -0.05530339 -0.09299149 -0.062229715 0.06493597
-0.09303257 0.09122471 -0.06096649 -0.0076545915 0.064085744 0.045129146 0.056231298 0.102314144
-0.031318776 0.030943144 0.03699216 0.008138674 -0.058413077 -0.091904745 0.01386464 -0.054652143
-0.09356109 -0.06960448 -0.07193983 -0.08994777 -0.10645226 0.055205464 0.009946791 -0.0052435054

conv_block_2.2.bias f4 [10]
00000000: c531 b7bc 0fac a7bd 3c34 a93d 0300 3c3d
00000010: 68e5 8bbd 158a 8abb f491 af3d 6afa 0dbc
00000020: 24f9 0e3b afa1 90bd
-0.0223626 -0.081871144 0.08261916 0.04589845 -0.06830865 -0.0042278864 0.0857276 -0.00866566
0.002181598 -0.07062089

classifier.1.weight f4 [3, 1690]
00000000: efc1 bfbc cf83 13bc 9fc2 73bc 529a c8bc
00000010: eabd 20bd c220 07bc 6e06 d2bc 6b22 143c
00000020: c020 3d3c d54a c8bc 873e 83bc 9336 cbbc
00000030: 0dc3 a5bc 27c7 73bc b3a8 e9bc a18d 303b
00000040: b0a1 00bd ee62 e8bb dc21 1cb9 e8c1 b3bc
00000050: 4a94 75bc 85db c2bc 2a01 293c 4e33 06bd
00000060: 6caa b03b 1521 02bd 2c31 16bd a0b6 f2bc
00000070: 3529 5c3b 23f7 10bd 8a86 093c a068 72bc
00000080: e2ba f9bc d123 50bc a363 81bb 3903 e2ba
00000090: 8ad9 d7bc 1895 29bd f741 f6bb 66aa 2cbc
000000a0: 83ec 17bd 62e8 4e3c 99be 9cbb 82bd 39bc
000000b0: cbed afbb 3aae 19bd b694 12bd 32a1 493c
000000c0: 96fc 07bd 8793 bcbc f7cc 44bd 84a5 7cbc
000000d0: e215 b1bc 44a9 91bc 9110 c6bb 7ce4 e7bc
000000e0: 4500 4bbc 9f8d 4cbc ef2f fabc 2e4a dcbc
000000f0: 9681 833b 5fe9 df3b b3c3 2abc 457e 54bc
00000100: cfb0 c7bc 3149 9dbc 79ad 96bc 3684 26bc
00000110: 579d 40bc 4668 2cbd cee9 2bbd e6ca a8bc
00000120: eda1 723c dd20 e9bc f253 7f3b dfe3 02bc
00000130: 1321 bbb9 8149 d0bc 4352 5e3c ee8a 82bc
00000140: d2ce 21bd 8a92 98bc c78f 20bd 0ca6 d5bb
00000150: 676e 83bc ef8c 44bc d957 d7bc 8f27 36bc
00000160: 3fcd 4ebd bf1d bcbc 7df9 03bd 6f38 7d3c
00000170: 33cd 0e3c 80d0 f9bb 4c31 d6bc 3f4b 12bc
00000180: a5ff 3fbc 1ba0 93bc 8456 e6bc 1f6a c8bc
00000190: 40d0 f0bc d8ef bfbc 849e 92bc e028 02bd
000001a0: 40bc 6fbc 9b20 1fbc 5eab 42bc add6 88bc
000001b0: 39bc eabc 3245 fcbc 3bce babc 876f 2fbd
000001c0: e048 a03a 72e4 cebc 32ff 21bd d811 4bbd
000001d0: e018 9c3b e7af b2bc 17de eabb 697a 1dbd
000001e0: 35e1 91ba 29bf a93b 16de c5b9 90c3 d7bc
000001f0: 8d75 9fbb 082c 96bb f9ac 8abc 680e 41bd
00000200: 47d8 c4bc 989d 97bc a874 db3c 709a b4bc
00000210: 2c1d 91bc 7081 b1bb 33a2 02bd 29b9 8ebc
00000220: a373 b9bc e9bf 3bbd 3e0f dcbc 87c5 b7bc
00000230: a554 46b9 d369 17bd cf8d 05bd c6ed 2ebc
00000240: 16b4 35bc 0d7c 003d f9ce 213c 4870 75bc
00000250: 1310 44bc 0ea3 823b 6923 bdbc c287 1d3c
00000260: f9c3 4bbc 50de 963a eb76 c0bc 5db0 d8bc
00000270: c88e f83a 8a52 6f3c 4c65 073d f27b 7fb9
00000280: 9742 88bb 8d55 a43a f0f5 053a 1ea8 13bc
00000290: 1087 6cbc 4f25 18b8 9d14 8fbb 9352 3b3c
000002a0: c70c 713c ba7d 1dbc 1121 11bc ec3b 18bc
000002b0: 75f3 8a3c 7a0b 3bbc befe 20bc 4ddd 5e3c
000002c0: c59f c13c c685 513b 7fa9 9b3c 5eac 493c
000002d0: f6ad 30bb e79d d3bb 50e1 803c 8a21 743c
000002e0: 54d9 423c c766 023c 4ca5 b5bc 0f34 953b
000002f0: d3f9 75bc 60cc adbc 85af 9dbb 49e3 cfb9
00000300: e66e 8d3c d74c 7bbb 75ec 0a3c 0c52 37bc
00000310: 1248 003c 3061 9dbc 890c 29bc fd3c a33b
00000320: e3f3 adbc f2c9 97bc d4bb adbc d34c c5bc
00000330: 7023 fc39 6c03 24bc a504 0d3c 4b0e a83c
00000340: 867c 143c 9203 a1bc 1243 8abc c23c 23bc
00000350: 945a a13c b9d0 573c 5ad8 02bc eb08 55bc
00000360: 5412 27bc 8e88 7dbc dbc3 bebb ced9 283b
00000370: ad8c 3e3c ce67 903c 3a99 c6bc 99eb 903b
00000380: e4c1 bb3b 9ba1 dfbb e5a9 b23b fcdf 69bb
00000390: 1b15 bdbb ea47 983c f896 6d3c 5bde b33c
000003a0: e60c bfbc 2910 173c 9573 0cbc 41aa 783b
000003b0: c070 84bb 1587 a23c 7163 b3bc 0052 bc3c
000003c0: 4f71 a4ba 36af be3c 7a2d 4f3b a6f0 863c
000003d0: df40 a2bc baae 163a 18af 15bc 8b33 97ba
000003e0: ff6c 89bb fb32 abbc 3f9c 0abc 713f a03c
000003f0: 1463 583c 565e 8b3c 01dd 87bc 8605 773b
-0.023407904 -0.009003594 -0.014877944 -0.024487648 -0.039243616 -0.008247556 -0.025637832 0.009041409
0.011543453 -0.024449745 -0.016021026 -0.024806296 -0.020234609 -0.014879025 -0.028522825 0.0026939886
-0.031404197 -0.0070918715 -0.00014889933 -0.021943048 -0.014988968 -0.023786316 0.010315219 -0.03276377
0.0053914096 -0.03176983 -0.036667988 -0.029628098 0.0033593897 -0.035391938 0.008393893 -0.014795452
-0.03048462 -0.012703852 -0.003948645 -0.0017243392 -0.026348848 -0.041401953 -0.007515188 -0.010538673
-0.03709079 0.012628647 -0.004783463 -0.011336686 -0.0053689233 -0.03751967 -0.035786353 0.012306498
-0.03319987 -0.023019565 -0.048047032 -0.015420321 -0.02161688 -0.017780907 -0.0060444553 -0.028307192
-0.012390201 -0.012484937 -0.030540435 -0.02689084 0.0040132506 0.00683324 -0.010422635 -0.012969558
-0.024376301 -0.01919994 -0.018393265 -0.0101633575 -0.011756263 -0.04209163 -0.04197102 -0.020604562
0.014809114 -0.028458053 0.0038959947 -0.007988899 -0.00035692062 -0.025425674 0.013569417 -0.015935387
-0.03950388 -0.018624563 -0.039199617 -0.0065200385 -0.016043855 -0.011996492 -0.026287006 -0.01111783
-0.050488707 -0.022963403 -0.032220352 0.015455349 0.0087159155 -0.007623732 -0.026146553 -0.008929073
-0.011718665 -0.01802068 -0.028117426 -0.024464665 -0.029396176 -0.023429796 -0.017897852 -0.031777263
-0.014632285 -0.009712364 -0.011881677 -0.016703928 -0.028654205 -0.030794714 -0.022803416 -0.04283097
0.001222875 -0.025255416 -0.039550014 -0.049577564 0.0047637075 -0.021812392 -0.0071675885 -0.038446818
-0.0011129739 0.005180259 -0.00037740235 -0.026338369 -0.004866308 -0.0045828857 -0.016928183 -0.04713288
-0.02402891 -0.018507764 0.026789024 -0.022046298 -0.017714106 -0.0054170415 -0.031892966 -0.017422276
-0.022638148 -0.045837317 -0.026862737 -0.022433056 -0.00018914284 -0.036966156 -0.032605942 -0.010676807
-0.011090299 0.031368304 0.009876006 -0.014980383 -0.011966723 0.003986723 -0.023088174 0.009614887
-0.01243686 0.0011510346 -0.023494205 -0.026451284 0.001896345 0.014607081 0.03305559 -0.00024364868
-0.0041583288 0.0012537703 0.0005110195 -0.00901225 -0.014436498 -3.627437e-05 -0.004366471 0.011433261
0.014712519 -0.009612495 -0.008857981 -0.00929163 0.016961792 -0.01141631 -0.00982636 0.013602567
0.023635754 0.0031970604 0.01900172 0.012309162 -0.0026959158 -0.0064580324 0.015732437 0.014900574
0.011892635 0.007959074 -0.022173546 0.004553325 -0.015013176 -0.021215618 -0.0048121833 -0.00039651457
0.017264795 -0.003834536 0.008479227 -0.011188995 0.007829683 -0.019211382 -0.01031793 0.0049816356
-0.021234458 -0.018528912 -0.021207727 -0.024084484 0.00048091589 -0.010010581 0.008607064 0.020514628
0.009062892 -0.019655023 -0.016877685 -0.009963216 0.019696511 0.013172322 -0.007986153 -0.0130026145
-0.010197241 -0.015474452 -0.0058216876 0.0025764587 0.011630219 0.017627623 -0.024242986 0.0044226167
0.0057299007 -0.006824685 0.005452382 -0.0035686484 -0.0057703382 0.018588979 0.014501326 0.021956613
-0.02332158 0.0092201615 -0.008572479 0.0037943276 -0.004041761 0.019839803 -0.021898003 0.02298832
-0.0012545976 0.023276906 0.00316128 0.016472172 -0.019806324 0.0005748082 -0.009135984 -0.0011535747
-0.0041939016 -0.020898333 -0.0084601035 0.019561501 0.013207216 0.017012756 -0.016584875 0.0037692501

classifier.1.bias f4 [3]
00000000: c79f f1bb 926d 0d3b 8d43 803b
-0.0073737833 0.0021580202 0.0039143027
