models/tiny_vgg_model_v0.pth (torch, 36484 bytes, 10 tensors)

conv_block_1.0.weight f4 [10, 3, 3, 3]
-0.17214608 -0.059924982 -0.0407569 -0.14314532 0.15515804 -0.09792167 -0.15232702 -0.13813785
-0.08594953 0.00083821744 0.117861256 0.03979077 -0.07442597 0.11902001 -0.11129121 0.050964918
-0.09076768 -0.099917054 -0.018024616 0.13354327 -0.07109076 0.061363816 0.15864305 0.011189361
0.15889964 0.1113678 0.046509825 0.022829605 0.03577385 0.12623227 0.19327919 0.09941646
0.2041968 -0.010782682 -0.0977626 -0.028879784 0.11015673 -0.031581562 -0.10152434 0.09535571
-0.14754163 -0.07012574 0.12658517 0.032709576 0.03351842 -0.11577953 -0.16197912 -0.032951508
-0.18254948 -0.12595548 0.028716536 0.12649554 -0.18382885 -0.022019457 0.18733342 0.086645424
-0.14451717 -0.14114788 0.1544422 0.047137056 -0.15781982 0.09745269 -0.09988098 0.02232008
-0.07866889 -0.18303274 0.02644308 0.021183256 -0.18044947 0.06405803 -0.1052611 0.12847903
0.14846006 0.10452802 -0.068809256 -0.114916384 0.08003435 -0.06709743 -0.16246586 -0.07925882
0.08541564 -0.13298336 -0.1794395 -0.090389885 -0.08179098 0.16798669 -0.1448392 0.013209892
-0.14538994 0.05845297 0.1355018 -0.035014804 0.16188593 0.09804307 0.13953389 0.18235862
-0.08355608 -0.0003369154 0.1597727 0.01754727 0.019731615 0.06279086 0.0335308 0.1833025
0.044318084 -0.16138849 -0.13276796 -0.018967863 0.15646476 -0.16109009 0.09346342 -0.13137212
0.01365957 -0.17474292 0.16134967 0.039711818 0.08247841 -0.13915175 -0.0143401865 -0.1764009
-0.026782716 -0.051193863 0.10396617 -0.1867223 0.14916147 -0.13115898 -0.11507367 0.09225521
-0.09259785 -0.01540221 0.12762651 -0.06747179 0.1896569 -0.18820965 0.12412769 0.16374831
-0.08395397 0.027875504 -0.14187324 -0.19085465 0.011911383 -0.099985704 -0.11168347 0.13679767
-0.071408994 -0.17352983 -0.11736529 -0.15495975 -0.025350057 0.07187237 0.030690566 0.10943824
0.023896987 0.10627333 -0.18937078 0.08751936 0.04402587 0.18663402 -0.0032931534 -0.15723835
0.13176905 0.10479131 -0.07967488 0.15102336 -0.019423552 -0.010088869 -0.059173413 0.12440101
0.10492297 -0.036679715 -0.07480788 0.1405408 0.06580284 -0.012059539 -0.0020981936 -0.015171343
0.050198622 0.14788271 0.085511096 0.12027551 0.09513491 0.15310803 -0.18560874 0.17889756
0.089557484 0.12634608 0.18194447 -0.083664365 0.15553492 0.05445081 0.17978309 -0.14317971
0.032701965 0.16651101 -0.10488048 -0.026223231 -0.0045206044 0.055529233 0.12127864 0.047837097
0.024184536 -0.18311818 -0.061454218 -0.14097467 -0.17259553 0.1125937 0.069941215 -0.15033911
0.046672292 -0.19378698 0.16195992 0.0689389 -0.13132852 -0.09962562 0.04239798 0.12889123
0.13436608 -0.1535888 -0.05409328 -0.15139285 0.08021374 0.012759984 0.07708491 -0.101184666
0.14566505 0.11415156 -0.17559643 0.09068915 0.15216829 -0.16658045 -0.03650452 0.17270279
0.1924077 -0.01793638 -0.1413553 0.07324435 -0.06379438 0.1112002 0.04195438 -0.15300716
0.026380656 0.050952427 0.19561663 -0.14203516 0.09243051 0.002169072 0.09907703 0.0575956
0.0051466995 0.116639026 0.039849468 0.0942732 0.007876304 0.15583305 0.047988053 -0.04698444
00000000: 1047 30be e673 75bd b5f0 26bd b094 12be
00000010: c0e1 1e3e 288b c8bd 9dfb 1bbe 0274 0dbe
00000020: 4f06 b0bd d2bb 5b3a 3e61 f13d a5fb 223d
00000030: a56c 98bd c3c0 f33d a5ec e3bd 97c0 503d
00000040: 68e4 b9bd 50a1 ccbd 5ca8 93bc 91bf 083e
00000050: 0898 91bd a058 7b3d 5373 223e 9553 373c
00000060: 96b6 223e cd14 e43d 1681 3e3d 2705 bb3c
00000070: 9a87 123d 0843 013e fbea 453e db9a cb3d
00000080: f718 513e d9a9 30bc c237 c8bd 4c95 ecbc
00000090: da99 e13d ab5b 01bd feeb cfbd db49 c33d
000000a0: 2715 17be 159e 8fbd 8b9f 013e 7afa 053d
000000b0: 9c4a 093d d11d edbd dbdd 25be 29f8 06bd
000000c0: 40ee 3abe 79fa 00be f13e eb3c 0c88 013e
000000d0: a13d 3cbe 2662 b4bc 55d4 3f3e 2873 b13d
000000e0: 4ffc 13be 1289 10be 1926 1e3e c912 413d
000000f0: 859b 21be 4795 c73d 668e ccbd 9ad8 b63c
00000100: 281d a1bd ef6c 3bbe 289f d83c 8288 ad3c
00000110: bfc7 38be db30 833d 2293 d7bd 0290 033e
00000120: ea05 183e c912 d63d deeb 8cbd 4859 ebbd
00000130: 0de9 a33d 616a 89bd 735d 26be 7352 a2bd
00000140: 65ee ae3d ca2c 08be fdbe 37be 551e b9bd
00000150: 0882 a7bd b404 2c3e ba50 14be 4e6e 583c
00000160: 1ae1 14be 626c 6f3d fcc0 0a3e af6b 0fbd
00000170: 6dc5 253e ceca c83d f9e1 0e3e 38bc 3a3e
00000180: 731f abbd 05a4 b0b9 749b 233e 4bbf 8f3c
00000190: 32a4 a13c 7f98 803d 9857 093d a7b3 3b3e
000001a0: e186 353d 0643 25be 53f4 07be 7e62 9bbc
000001b0: 4c38 203e cdf4 24be c069 bf3d 6a86 06be
000001c0: 64cc 5f3c cfef 32be d938 253e dca8 223d
000001d0: 71ea a83d cc7d 0ebe 1af3 6abc 70a2 34be
000001e0: 6d67 dbbc a8b0 51bd 37ec d43d 2134 3fbe
000001f0: c9bd 183e 8a4e 06be bfab ebbd 4df0 bc3d
00000200: f1a3 bdbd 8d59 7cbc 86b0 023e a62e 8abd
00000210: 6b35 423e 08ba 40be a936 fe3d a3ad 273e
00000220: 0ff0 abbd 2b5b e43c 3847 11be 676f 43be
00000230: f627 433c 4ec5 ccbd 4eba e4bd b014 0c3e
00000240: e13e 92bd ceb1 31be 375d f0bd c5ad 1ebe
00000250: ecaa cfbc d231 933d c86a fb3c 2821 e03d
00000260: 9dc3 c33c d5a5 d93d 6aea 41be 5a3d b33d
00000270: 7854 343d fd1c 3f3e f2d1 57bb 1703 21be
00000280: 77ee 063e d49c d63d 952c a3bd dea5 1a3e
00000290: 241e 9fbc c94b 25bc d25f 72bd f5c5 fe3d
000002a0: dbe1 d63d 783d 16bd e034 99bd ede9 0f3e
000002b0: a4c3 863d 5f95 45bc d981 09bb 3a91 78bc
000002c0: 129d 4d3d 916e 173e 7120 af3d 0253 f63d
000002d0: 17d6 c23d 5ac8 1c3e 3810 3ebe ec30 373e
000002e0: ea69 b73d de60 013e a74f 3a3e 3958 abbd
000002f0: 8c44 1f3e d007 5f3d 0f19 383e b49d 12be
00000300: 7ff2 053d dd81 2a3e 94cb d6bd 1ad2 d6bc
00000310: 9421 94bb 9f72 633d f060 f83d d5f0 433d
00000320: a61e c63c 5583 3bbe 6bb7 7bbd aa5b 10be
00000330: e2bc 30be 8797 e63d 573d 8f3d 7ff2 19be
00000340: 722b 3f3d 1870 46be d2d8 253e d72f 8d3d
00000350: fc7a 06be 8408 ccbd 81a9 2d3d 10fc 033e
00000360: 4397 093e 6246 1dbe ea90 5dbd ba06 1bbe
00000370: 1a47 a43d 400f 513c b1de 9d3d e839 cfbd
00000380: 3829 153e 4bc8 e93d 8dcf 33be 3cbb b93d
00000390: 01d2 1b3e 1194 2abe c385 15bd 00d9 303e
000003a0: 8606 453e 51ef 92bc 72bf 10be 2201 963d
000003b0: a1a6 82bd eebc e33d 5bd8 2b3d e9ad 1cbe
000003c0: 3f1c d83c 7eb3 503d ba4f 483e aa71 11be
000003d0: 354c bd3d fd26 0e3b e6e8 ca3d 5de9 6b3d
000003e0: a5a5 a83b 71e0 ee3d 3239 233d 4f12 c13d
000003f0: 9d0b 013c b392 1f3e 1f8f 443d c272 40bd

conv_block_1.0.bias f4 [10]
0.10756375 0.036334064 0.13205867 0.13732299 -0.19189534 -0.15553993 -0.012665987 0.12234023
0.11758424 -0.0905484
00000000: 624a dc3d 07d3 143d 633a 073e 669e 0c3e
00000010: 3680 44be dc45 1fbe 0085 4fbc 848d fa3d
00000020: 02d0 f03d 7171 b9bd

conv_block_1.2.weight f4 [10, 10, 3, 3]
0.034950327 0.005175319 0.051767714 -0.090682596 0.021048788 -0.049943488 -0.0864351 0.005810754
-0.022253426 0.09523754 -0.029846415 0.059810933 -0.08526794 0.052996386 -0.03499454 0.093953766
0.068572275 -0.03037371 -0.022433674 -0.060931534 -0.12844244 -0.034835238 -0.04793259 0.031704105
-0.08330147 -0.054923918 -0.09770729 0.05406335 -0.041453384 -0.035407282 0.008084768 0.07092646
-0.050256874 -0.031575568 -0.0039433683 -0.052118935 -0.045447536 -0.060539883 -0.05107828 0.10281709
0.08271812 -0.06874533 0.0830781 -0.087639146 -0.026443554 0.04860982 -0.053506374 0.08081385
0.03839163 -0.09688036 0.0756107 0.07617071 -0.07898745 0.050984804 0.06676754 -0.011451603
-0.011231678 0.06529244 -0.028567264 -0.08284144 0.08597898 -0.020948917 0.012629218 -0.083275735
0.0056818966 0.041092318 0.075928725 0.06999717 0.035775166 -0.0621858 -0.0680875 0.095303245
-0.09119262 0.006289634 0.026630884 0.06372975 -0.071859 0.008268212 0.07426878 0.007882853
0.003632905 -0.03000048 0.05446011 0.022516444 -0.09798525 0.017936632 -0.08367735 0.0055715875
-0.07072634 0.106877774 -0.0124084065 0.010015183 -0.041963764 -0.026907401 -0.05133654 -0.070613235
0.066313274 0.10217106 0.01436743 0.11446832 0.01641212 0.016398111 -0.006096826 0.042840324
-0.007952263 0.005526763 0.0021217149 0.07447979 -0.09399592 -0.100780845 -0.056592483 -0.104449295
0.009630111 -0.036496628 -0.0611954 0.087165944 -0.100417264 -0.05085208 -0.07343153 -0.0249242
0.06577518 0.051611938 -0.07091416 -0.04714787 -0.08362675 -0.04584992 0.058845516 -0.018912038
-0.0029593376 -0.019550417 0.047223806 -0.08526181 0.0912761 0.055778716 -0.036558993 0.0678599
0.063811734 -0.090701625 -0.050786633 -0.010641405 0.05531079 0.09444775 0.07687381 -0.030570084
0.053292166 -0.03453036 -0.09151985 -0.05339682 -0.013156921 0.10132524 -0.021820994 -0.063217886
-0.00898255 0.09163655 0.015807677 -0.075891204 0.0960032 -0.05210683 -0.042031836 -0.020744419
-0.00023336362 0.07503269 0.10832423 0.06270135 0.070729606 -0.08591735 0.045676798 0.070898056
0.013003258 0.051247895 0.013630361 0.10927113 0.04894609 0.030364914 -0.060135674 0.041691445
-0.024757018 0.0936859 0.037418794 0.03460082 0.05432755 0.006888996 0.009079387 0.041115824
0.05193302 -0.040343083 -0.06603185 -0.086867966 -0.006639639 -0.040469777 -0.041594215 -0.009121317
-0.018416824 0.0857073 0.09153142 0.050883986 -0.02798637 -0.09387655 0.046062414 -0.022444721
-0.01574967 0.029086849 0.04132725 0.018950904 -0.03196424 0.02288035 0.05909854 -0.10979735
0.02300346 0.08203706 0.07556902 0.030861713 0.052115735 0.023224834 -0.0032583263 0.0085889865
-0.0051267934 -0.05811851 -0.013348685 -0.10032316 -0.019803591 0.043206118 -0.041604586 0.07749721
0.051346045 -0.052025083 -0.049628522 -0.07876757 0.051469475 0.032867443 0.030314563 -0.043956134
-0.029490655 0.035982303 -0.09747371 -0.0524686 -0.0380551 -0.06030892 0.05534942 -0.080063105
-0.09969088 -0.10095098 0.01691746 0.08523376 -0.04600272 -0.038489968 -0.03082515 0.034240555
-0.049852982 -0.07504251 0.069141515 0.036829915 0.0367792 0.01737939 0.062321655 0.021337083
00000000: 1328 0f3d b995 a93b 620a 543d ccb7 b9bd
00000010: 826e ac3c 8b91 4cbd e304 b1bd 2368 be3b
00000020: d14c b6bc e60b c33d 7880 f4bc 4ffc 743d
00000030: f5a0 aebd bd12 593d 6f56 0fbd d56a c03d
00000040: 9f6f 8c3d 49d2 f8bc d3c6 b7bc 5893 79bd
00000050: 6a86 03be 65af 0ebd f754 44bd 2adc 013d
00000060: f699 aabd e7f7 60bd c21a c8bd 8871 5d3d
00000070: 06cb 29bd 3a07 11bd fa75 043c e441 913d
00000080: 27da 4dbd 6255 01bd 5f37 81bb aa7a 55bd
00000090: 3227 3abd abf8 77bd 7537 51bd c491 d23d
000000a0: 1e68 a93d 5aca 8cbd da24 aa3d 277c b3bd
000000b0: 27a0 d8bc 171b 473d 8029 5bbd bb81 a53d
000000c0: 8b40 1d3d 3669 c6bd c8d9 9a3d 64ff 9b3d
000000d0: 2cc4 a1bd 71d5 503d 6cbd 883d 819f 3bbc
000000e0: 1205 38bc 0bb8 853d e505 eabc c6a8 a9bd
000000f0: bf15 b03d 109d abbc c8ea 4e3c 788c aabd
00000100: 342f ba3b 6b50 283d 8580 9b3d ad5a 8f3d
00000110: fb88 123d 8ab6 7ebd 7671 8bbd 592e c33d
00000120: 32c3 babd 4619 ce3b 0329 da3c be84 823d
00000130: d02a 93bd 6577 073c 3b1a 983d 1527 013c
00000140: 0816 6e3b 91c3 f5bc 9011 5f3d 6874 b83c
00000150: 7eac c8bd d8ef 923c 085f abbd dd91 b63b
00000160: f9d8 90bd bce2 da3d a14c 4bbc b916 243c
00000170: 32e2 2bbd e96c dcbc 4446 52bd ac9d 90bd
00000180: 41cf 873d 103f d13d 5e65 6b3c 5e6e ea3d
00000190: b672 863c 5555 863c e2c7 c7bb 5679 2f3d
000001a0: 354a 02bc d919 b53b 780c 0b3b dc88 983d
000001b0: ef80 c0bd 3066 cebd 85cd 67bd 83e9 d5bd
000001c0: 9dc7 1d3c 7d7d 15bd 07a8 7abd 0f84 b23d
000001d0: 91a7 cdbd 454a 50bd 4563 96bd d62d ccbc
000001e0: 23b5 863d 0a67 533d 713b 91bd 201e 41bd
000001f0: 8044 abbd 20cd 3bbd ff07 713d 6bed 9abc
00000200: 72f1 41bb 3228 a0bc c06d 413d be9d aebd
00000210: f7ee ba3d 3978 643d e2be 15bd 22fa 8a3d
00000220: baaf 823d c6c1 b9bd a505 50bd 4a59 2ebc
00000230: 918d 623d d26d c13d 0470 9d3d 1d6e fabc
00000240: e348 5a3d b56f 0dbd c26e bbbd a0b6 5abd
00000250: 2090 57bc 9c83 cf3d f1c1 b2bc 6178 81bd
00000260: 8c2b 13bc f2ab bb3d 1a7f 813c d96c 9bbd
00000270: 539d c43d f96d 55bd 9329 2cbd 33f0 a9bc
00000280: 12b3 74b9 bdaa 993d 18d9 dd3d 9169 803d
00000290: afda 903d 70f5 afbd 9817 3b3d 0033 913d
000002a0: 9e0b 553c 50e9 513d e151 5f3c 8bc9 df3d
000002b0: b27b 483d d7bf f83c d350 76bd a6c4 2a3d
000002c0: 3bcf cabc 65de bf3d 7344 193d 97b9 0d3d
000002d0: 9186 5e3d 16bd e13b b6c1 143c 1169 283d
000002e0: b8b7 543d ca3e 25bd b53b 87bd d5e7 b1bd
000002f0: 5491 d9bb a3c3 25bd b25e 2abd 9471 15bc
00000300: e1de 96bc 4f87 af3d d374 bb3d ba6b 503d
00000310: ac43 e5bc 5942 c0bd f1ab 3c3d fedd b7bc
00000320: 7405 81bc 8b47 ee3c c346 293d ed3e 9b3c
00000330: efec 02bd 926f bb3c 5011 723d 6fdd e0bd
00000340: c171 bc3c 0c03 a83d eec3 9a3d b4d1 fc3c
00000350: 4f77 553d 0242 be3c a589 55bb d2b8 0c3c
00000360: a9fe a7bb ad0d 6ebd 71b4 5abc 3b76 cdbd
00000370: 243b a2bc e6f8 303d 9269 2abd dbb6 9e3d
00000380: 3b50 523d 4118 55bd 4747 4bbd e450 a1bd
00000390: a8d1 523d 03a0 063d 3f56 f83c 590b 34bd
000003a0: 6396 f1bc 2e62 133d 4ca0 c7bd 51e9 56bd
000003b0: aadf 1bbd 7c06 77bd 13b6 623d 20f8 a3bd
000003c0: bb2a ccbd 63bf cebd 7c96 8a3c 0a8f ae3d
000003d0: 596d 3cbd a8a7 1dbd 0685 fcbc d33f 0c3d
000003e0: a432 4cbd e3af 99bd 119a 8d3d f7da 163d
000003f0: c9a5 163d 395f 8e3c fe44 7f3d 1bcb ae3c

conv_block_1.2.bias f4 [10]
0.0252186 -0.022945678 -0.023430435 -0.07668903 0.06052625 -0.0018470921 -0.0010542218 0.04451967
0.053147268 -0.037683386
00000000: 3d97 ce3c 93f8 bbbc 2ff1 bfbc 230f 9dbd
00000010: 60ea 773d 201a f2ba d02d 8aba 425a 363d
00000020: f3b0 593d e559 1abd

conv_block_2.0.weight f4 [10, 10, 3, 3]
0.024775734 0.022723533 -0.07191011 0.04408428 0.021326082 0.08601666 0.07307689 0.06336141
-0.102307625 0.09783938 -0.013415385 -0.030175703 0.05738532 0.066076644 -0.037542623 0.085056365
0.04362621 -0.035888102 -0.09141441 -0.06883936 0.09594133 -0.031153144 -0.023317525 -0.088667735
-0.09912366 0.049160186 -0.013254148 -0.0258925 -0.064899385 0.07001319 -0.10816302 0.0046568513
0.050106216 -0.111941285 0.09475903 -0.005501583 -0.06385941 0.030942855 0.07979012 0.08286864
-0.07564714 -0.048411503 -0.035059854 -0.10444526 -0.05805089 0.09617837 0.070218444 0.048078284
0.06740463 0.058016643 0.0207788 -0.01437938 -0.003295965 0.09096606 0.032254953 0.07252821
-0.06308465 0.05027761 -0.0125121 -0.075879894 -0.105217665 0.024495678 -0.04378864 0.023888107
-0.020040972 -0.07120187 0.07498097 0.017029144 -0.09580805 -0.0011603828 0.069688775 0.054298103
0.07280987 -0.04569101 -0.0012025032 0.04593669 0.024503887 -2.6490576e-05 0.028424444 -0.017859919
-0.072152495 0.056279123 -0.09998046 -0.034211423 -0.050123062 -0.026683168 -0.0086688055 0.07230416
0.020868033 -0.06314803 0.06476352 0.0808576 0.020253502 -0.02642938 0.014830947 0.048047625
0.021672746 -0.010588284 0.0030778074 0.058339655 -0.03814739 0.10334897 -0.08484487 0.10508011
-0.074328266 0.0883807 -0.009326143 -0.0136865415 0.08781693 0.07165257 -0.09051606 -0.021051021
-0.10156448 0.09004152 -0.0875109 0.03542405 0.08378499 0.077217884 0.015942333 0.056995742
-0.012510514 0.07108175 -0.019061144 0.0746394 -0.0083843125 0.00806463 -0.06864675 -0.041491564
0.08583589 0.06692478 -0.03854162 -0.00023970554 -0.056725614 -0.0058178925 -0.0316522 0.0755038
0.031575415 -0.07125393 -0.080677345 0.07958948 0.078711264 -0.02784085 -0.06708334 -0.082539625
0.0251421 -0.031838525 0.076920465 0.06025149 -0.030130666 -0.0069139516 -0.0336694 0.072304584
-0.09992042 0.03448329 -0.10499335 -0.09945401 0.05737466 0.036250446 -0.014777313 -0.10533952
-0.012420407 -0.08302277 -0.07233812 -0.01366127 0.031111332 -0.006642773 -0.08484049 -0.10233192
0.08903284 0.08799941 -0.004559427 0.086233 0.07480355 0.050357178 0.050681964 0.0741208
0.06578239 -0.057033982 -0.07740687 -0.044818915 -0.029804004 -0.032454614 -0.10202404 0.09112523
-0.059910893 0.07361648 -0.103390515 0.06050504 -0.0031793641 -0.034920532 -0.050907586 -0.09058376
-0.02708422 -0.04285184 0.007874109 0.0065407557 0.07499207 -0.067197904 -0.023794075 -0.09726262
0.015594979 -0.08946084 -0.103852645 -0.100103065 0.053604916 -0.04459359 0.028226158 0.07948599
-0.07709515 -0.0015016966 0.03840396 -0.051763866 -0.027563905 0.053286776 0.10400482 0.01571811
-0.02084224 -0.065584436 0.008736208 -0.093461074 -0.08327679 0.046648886 -0.09759342 0.0991856
0.04007037 0.008603753 0.015481673 -0.04942396 0.05447193 0.042863876 -0.078443974 -0.046489704
0.012590316 -0.047722958 0.07782536 -0.036011253 -0.04981208 0.07935251 -0.061877083 0.091125414
-0.017446293 -0.0920278 -0.07875415 0.0544024 0.008557046 -0.02953413 -0.06300951 0.0014874596
0.06801135 -0.09930281 0.08776759 -0.03420702 0.100899056 -0.09196883 -0.10477488 0.10525987
00000000: 7bf6 ca3c b426 ba3c 9c45 93bd b891 343d
00000010: 09b4 ae3c 8129 b03d 56a9 953d a0c3 813d
00000020: a986 d1bd 0360 c83d 34cc 5bbc 0933 f7bc
00000030: df0c 6b3d 3153 873d 4bc6 19bd 0832 ae3d
00000040: 66b1 323d 67ff 12bd 7a37 bbbd a6fb 8cbd
00000050: e37c c43d e134 ffbc 6504 bfbc 6e97 b5bd
00000060: 5801 cbbd 315c 493d ed27 59bc 821c d4bc
00000070: f8e9 84bd 1363 8f3d 9384 ddbd 8098 983b
00000080: 2d3c 4d3d 7941 e5bd 0611 c23d a046 b4bb
00000090: b9c8 82bd df7b fd3c 0169 a33d 09b7 a93d
000000a0: e3ec 9abd 244b 46bd ec9a 0fbd 65e7 d5bd
000000b0: c5c6 6dbd 2af9 c43d b0ce 8f3d bced 443d
000000c0: 700b 8a3d dca2 6d3d 4d38 aa3c 7e97 6bbc
000000d0: 1e01 58bb 6a4c ba3d c51d 043d ac89 943d
000000e0: 8632 81bd e5ef 4d3d 8dff 4cbc eb66 9bbd
000000f0: 5c7c d7bd 29ab c83c b85b 33bd feb0 c33c
00000100: f72c a4bc 49d2 91bd 9f8f 993d b480 8b3c
00000110: 0337 c4bd fc17 98ba fdb8 8e3d b067 5e3d
00000120: 571d 953d 7f26 3bbd 509d 9dba 1c28 3c3d
00000130: 60bc c83c 1438 deb7 61da e83c f74e 92bc
00000140: b0c4 93bd f084 663d 8ec2 ccbd 4721 0cbd
00000150: d74d 4dbd a996 dabc 9b07 0ebc 3414 943d
00000160: 70f3 aa3c c153 81bd bda2 843d ab98 a53d
00000170: acea a53c 6d82 d8bc 80fd 723c 96cd 443d
00000180: 0b8b b13c 7b7a 2dbc 0ab5 493b 90f5 6e3d
00000190: 7040 1cbd a0a8 d33d 26c3 adbd 3e34 d73d
000001a0: 6b39 98bd f100 b53d aecc 18bc 843d 60bc
000001b0: 5dd9 b33d 95be 923d 7c60 b9bd 3173 acbc
000001c0: 0a01 d0bd b067 b83d ea38 b3bd cf18 113d
000001d0: 7797 ab3d 6924 9e3d 7f99 823c 5e74 693d
000001e0: e6f8 4cbc 4f93 913d 1e26 9cbc 8bdc 983d
000001f0: 5b5e 09bc 8321 043c ab96 8cbd 0ff3 29bd
00000200: baca af3d dc0f 893d d1dd 1dbd 7759 7bb9
00000210: 1e59 68bd 05a4 bebb bda5 01bd bca1 9a3d
00000220: 3955 013d 95ed 91bd 2a3a a5bd cfff a23d
00000230: 5f33 a13d 7f12 e4bc fd62 89bd 890a a9bd
00000240: cef6 cd3c 1d69 02bd 7a88 9d3d 44ca 763d
00000250: 96d4 f6bc 6e8e e2bb ede8 09bd 6d14 943d
00000260: 14a3 ccbd 5a3e 0d3d c106 d7bd 8bae cbbd
00000270: b101 6b3d 597b 143d 8b1c 72bc 3fbc d7bd
00000280: f67e 4bbc d807 aabd 0226 94bd 85d3 5fbc
00000290: 31dd fe3c 9eab d9bb dac0 adbd 6693 d1bd
000002a0: da56 b63d 0939 b43d 3f67 95bb ed9a b03d
000002b0: 9b32 993d 5443 4e3d e497 4f3d a5cc 973d
000002c0: ebb8 863d 779c 69bd 7e87 9ebd 0a94 37bd
000002d0: 8727 f4bc 21ef 04bd fbf1 d0bd dd9f ba3d
000002e0: 2065 75bd 3dc4 963d 68be d3bd 22d4 773d
000002f0: e15c 50bb d508 0fbd 7984 50bd fa83 b9bd
00000300: badf ddbc 6985 2fbd 6802 013c d653 d63b
00000310: 7195 993d 0e9f 89bd cbeb c2bc a031 c7bd
00000320: 1582 7f3c 3f37 b7bd b2b0 d4bd d602 cdbd
00000330: d490 5b3d c5a7 36bd 8b3a e73c 8dc9 a23d
00000340: 10e4 9dbd 94d4 c4ba 794d 1d3d 5906 54bd
00000350: b3cd e1bc 3c43 5a3d 7b00 d53d 44c3 803c
00000360: 58bd aabc 2251 86bd 5022 0f3c 8568 bfbd
00000370: 068d aabd e712 3f3d 0fdf c7bd d221 cb3d
00000380: d420 243d c1f6 0c3c d8a6 7d3c c770 4abd
00000390: f51d 5f3d 0892 2f3d 3ca7 a0bd fd6b 3ebd
000003a0: 9d47 4e3c 2679 43bd e762 9f3d 8980 13bd
000003b0: c007 4cbd 9283 a23d d372 7dbd f69f ba3d
000003c0: 87eb 8ebc 1279 bcbd db49 a1bd 0dd5 5e3d
000003d0: da32 0c3c 8ff1 f1bc 210b 81bd ddf6 c23a
000003e0: 8949 8b3d 465f cbbd 7fbf b33d a91c 0cbd
000003f0: 2aa4 ce3d 275a bcbd 3694 d6bd 7d92 d73d

conv_block_2.0.bias f4 [10]
0.082510225 0.07982649 -0.06913533 -0.09397712 -0.08684888 0.078226745 0.013387421 0.040341027
-0.075385146 0.060383383
00000000: 1ffb a83d 127c a33d d396 8dbd 1477 c0bd
00000010: d3dd b1bd 5835 a03d ea56 5b3c a23c 253d
00000020: 8763 9abd 9154 773d

conv_block_2.2.weight f4 [10, 10, 3, 3]
0.079775915 0.014010461 0.0025834902 -0.08226234 0.063197084 -0.03693567 0.02778863 -0.1254187
-0.085669175 -0.007943343 0.044733398 0.00893065 0.017951857 -0.03654563 0.08231815 -0.06577646
-0.044719025 0.039012276 0.055877734 -0.05986622 0.0047499337 0.034197923 -0.044083647 0.02874652
-0.10402035 -0.10425495 -0.031894647 0.0767043 -0.027808348 -0.066711985 0.10153207 -0.03256903
0.026919039 -0.0012522383 0.010886058 -0.0665869 0.05148105 -0.005854626 -0.043602217 0.049840376
-0.08608242 -0.04968637 -0.07454513 -0.07989211 0.04959865 0.02528932 -0.08728834 0.04643387
0.014038525 -0.063815676 0.101828426 -0.0006241239 -0.02602371 -0.082492255 -0.05663293 -8.123024e-05
-0.081555955 -0.01032537 0.04858991 0.00038365362 -0.07522857 -0.025877248 0.08089845 0.019519191
0.014842546 0.04895715 0.075794704 -0.039725345 0.06569892 -0.005974537 -0.018810473 0.08948954
0.037206743 0.11416195 -0.017759014 0.01557416 -0.028871931 -0.039340977 0.039335933 0.014508502
-0.07631072 0.09808434 0.061696045 -0.062101185 0.02119861 -0.039785374 0.089834236 0.007508798
0.058148075 0.090496674 0.04015455 0.08884857 -0.08616794 -0.05248832 0.104938895 0.04466343
0.051457528 -0.05898542 -0.07391882 0.066355005 -0.020595247 0.04541232 -0.040011477 -0.061686654
0.03033909 -0.05467963 -0.06165375 0.029339474 0.09510728 0.09468458 0.03316317 0.036140352
-0.04821982 -0.02386002 -0.074034825 0.016475964 -0.08545485 -0.041167993 -0.027890962 0.10067966
0.053947147 -0.040347897 -0.025921356 -0.050285656 -0.012921942 0.10455376 0.051570505 -0.074641794
0.041566487 0.10488769 -0.0634114 -0.04791158 0.057314415 -0.03656475 -0.091589004 -0.039055042
0.0126197 -0.022921825 0.06522897 0.0046062395 0.0016813914 0.075918145 -0.04948344 0.12875253
-0.10039037 0.07451474 -0.008428182 -0.10804107 -0.07458359 -0.022827718 -0.036518756 0.032920625
-0.027257726 0.1131566 -0.07260307 -0.02616561 -0.032023285 0.08013466 0.06531639 -0.011413137
-0.050821323 -0.057827365 -0.07219079 -0.0116139045 0.07579282 -0.064497076 0.03385386 -0.07269901
-0.039752986 0.019811835 0.026042113 0.032174744 0.117013805 -0.037553966 -0.0583743 0.0899999
-0.02950493 0.06724664 -0.013822132 0.0005290793 0.02266657 -0.08996026 -0.011391441 -0.02417769
0.09630745 -0.056346495 -0.07125437 0.052038815 -0.010861986 -0.07270693 -0.0387521 -0.07673729
0.03585945 -0.012918925 0.07020629 -0.0207542 -0.07582741 0.048802644 0.024017533 0.024657419
0.050338585 0.021432806 -0.006128423 -0.0724493 0.074023925 -0.0090089105 0.017302351 0.03146841
-0.048697922 -0.026664052 0.022841495 -0.03506016 0.0018360215 0.052129302 -0.018040173 -0.05133855
0.04231918 0.08948792 -0.0047321417 0.0043712403 -0.06653951 0.10082532 0.015498109 -0.063495666
-0.051956575 0.026240285 0.050984327 -0.077055804 -0.10125993 -0.08210412 -0.02128927 0.08507697
0.054710913 0.066488124 -0.09213416 0.03062163 0.0774639 -0.037964772 0.092571266 0.07621699
-0.049426388 -0.10369029 -0.07255858 0.041325364 -0.010181436 -0.011227341 -0.10836925 0.09898795
-0.09562216 -0.08838383 0.06255617 0.057947744 0.060990073 0.0107538365 -0.0777718 0.051573813
00000000: 8e61 a33d 228c 653c c64f 293b 2879 a8bd
00000010: 796d 813d db49 17bd fba4 e33c c26d 00be
00000020: 5273 afbd cc24 02bc 5e3a 373d dc51 123c
00000030: c60f 933c dfb0 15bd 6b96 a83d cfb5 86bd
00000040: 4c2b 37bd 56cb 1f3d 0de0 643d 4836 75bd
00000050: 55a5 9b3b 1f13 0c3d 0e91 34bd d27d eb3c
00000060: 9f08 d5bd 9f83 d5bd f6a3 02bd 2517 9d3d
00000070: 55ce e3bc 4ba0 88bd 0cf0 cf3d 1a67 05bd
00000080: 5185 dc3c 2522 a4ba 705b 323c b65e 88bd
00000090: cbdd 523d 2ad8 bfbb 3d98 32bd 6c25 4c3d
000000a0: fb4b b0bd ef83 4bbd 1eab 98bd 799e a3bd
000000b0: f427 4b3d 8c2b cf3c 3bc4 b2bd 7131 3e3d
000000c0: d701 663c cbb1 82bd 6c8b d03d 3f9c 23ba
000000d0: ad2f d5bc b3f1 a8bd eef7 67bd 275a aab8
000000e0: cf06 a7bd be2b 29bc 3706 473d 1e25 c939
000000f0: 7011 9abd 86fc d3bc 16ae a53d b6e6 9f3c
00000100: 262e 733c 4b87 483d 413a 9b3d 0bb7 22bd
00000110: 288d 863d 0dc6 c3bb 6c18 9abc 4b46 b73d
00000120: 1966 183d becd e93d 5a7b 91bc c32a 7f3c
00000130: d484 ecbc 0124 21bd b71e 213d 11b5 6d3c
00000140: cb48 9cbd 71e0 c83d feb4 7c3d d05d 7ebd
00000150: b5a8 ad3c fdf5 22bd 03fb b73d 5d0c f63b
00000160: ad2c 6e3d 5256 b93d 1979 243d 3df6 b53d
00000170: d178 b0bd fefd 56bd 34ea d63d 00f1 363d
00000180: 21c5 523d b29a 71bd c062 97bd 22e5 873d
00000190: 5db7 a8bc 4502 3a3d 13e3 23bd 25ab 7cbd
000001a0: af89 f83c bff7 5fbd a488 7cbd 5659 f03c
000001b0: 9bc7 c23d fde9 c13d 1bd6 073d e807 143d
000001c0: 2582 45bd 1776 c3bc 929f 97bd 9af8 863c
000001d0: f402 afbd c59f 28bd 967b e4bc 2331 ce3d
000001e0: aff7 5c3d d643 25bd 0659 d4bc 55f8 4dbd
000001f0: 8eb6 53bc 4820 d63d 983b 533d ccdd 98bd
00000200: 9f41 2a3d 5bcf d63d d6dd 81bd ef3e 44bd
00000210: 85c2 6a3d ebc4 15bd 0493 bbbd 2ef8 1fbd
00000220: dcc2 4e3c 8dc6 bbbc c496 853d f0ef 963b
00000230: 2262 dc3a f97a 9b3d 26af 4abd b4d7 033e
00000240: 7799 cdbd 2f9b 983d 5c16 0abc a344 ddbd
00000250: 48bf 98bd 3201 bbbc b194 15bd c7d7 063d
00000260: 984b dfbc a6be e73d ebb0 94bd 4359 d6bc
00000270: d92a 03bd a41d a43d 99c4 853d 2bfe 3abc
00000280: 052a 50bd 63dc 6cbd c4d8 93bd 3f48 3ebc
00000290: 4439 9b3d 0b17 84bd 58aa 0a3d 38e3 94bd
000002a0: 07d4 22bd 6e4c a23c 4556 d53c aac9 033d
000002b0: efa4 ef3d 30d2 19bd e419 6fbd de51 b83d
000002c0: 53b4 f1bc 9bb8 893d 3976 62bc e9b1 0a3a
000002d0: 3eaf b93c 163d b8bd 2ba3 3abc 4a10 c6bc
000002e0: d73c c53d 95cb 66bd d0ed 91bd a726 553d
000002f0: 79f6 31bc 5fe7 94bd 86ba 1ebd 7128 9dbd
00000300: 5ce1 123d e6a9 53bc 51c8 8f3d b604 aabc
00000310: 674b 9bbd 48e5 473d 6bc0 c43c 5bfe c93c
00000320: d52f 4e3d da93 af3c f0d0 c8bb 4c60 94bd
00000330: db99 973d 1c9a 13bc a9bd 8d3c 05e5 003d
00000340: 7977 47bd 926e dabc 161e bb3c 3e9b 0fbd
00000350: a9a6 f03a 8985 553d fcc8 93bc 5f48 52bd
00000360: e056 2d3d 7145 b73d 1510 9bbb 9f3c 8f3b
00000370: de45 88bd 817d ce3d c8eb 7d3c 040a 82bd
00000380: 6bd0 54bd def5 d63c f1d4 503d 6fcf 9dbd
00000390: 5e61 cfbd 3426 a8bd d666 aebc d63c ae3d
000003a0: 8d18 603d ed2a 883d d6b0 bcbd 36da fa3c
000003b0: 65a5 9e3d f380 1bbd 0196 bd3d a717 9c3d
000003c0: 5373 4abd 935b d4bd 9899 94bd c944 293d
000003d0: 0ad0 26bc e2f2 37bc b3f0 ddbd 32ba ca3d
000003e0: 8dd5 c3bd 9502 b5bd 731d 803d 9d5a 6d3d
000003f0: bad0 793d dc30 303c d246 9fbd 103f 533d

conv_block_2.2.bias f4 [10]
0.08398291 0.0421445 0.035529885 0.037490483 0.034219738 -0.0015284539 -0.00724655 0.07576749
-0.09177855 -0.06514732
00000000: 3bff ab3d b69f 2c3d c987 113d 9f8f 193d
00000010: ff29 0c3d 6756 c8ba 7874 edbb fc2b 9b3d
00000020: 64f6 bbbd f56b 85bd

classifier.1.weight f4 [3, 1690]
0.020365316 -0.02134232 -0.016896687 0.0070682154 0.015193834 -0.012249319 0.005257035 -0.018523976
-0.00540889 -0.021100799 0.021755328 0.017026022 -0.01620783 0.007868782 -0.0035527651 -0.009013378
0.011744455 -0.015872445 -0.009480068 -0.02024867 0.019138467 0.012603168 0.013983429 0.015330075
-0.024437506 0.005689056 -0.0047538434 0.0046160086 -0.015894094 -0.0018476573 0.0053030713 0.004639433
-0.024274213 0.007052874 -0.020781146 -0.026532656 -0.0033635807 0.018693898 -0.0015196442 0.02102259
-0.017029395 -0.011281252 -0.019917592 -0.0042409427 -0.013610146 -0.019630617 -0.024925556 0.012033084
-0.00524473 0.011924386 0.0062413053 -0.013292937 0.002220858 0.012363406 0.021152692 0.0013899113
-0.014417783 0.0065893317 -0.008082875 -0.016593926 -0.005033385 0.016218714 0.003113062 0.00025771698
-0.023127355 -0.003974816 0.0060278857 -0.0017441072 -0.009017031 -0.0013801784 0.018707192 -0.009050328
0.002312783 0.02228048 0.005687437 0.01826742 -0.020738252 0.0127666565 0.018151045 0.017132672
0.008541917 0.0165578 -0.010613779 -0.0110805025 0.005415202 0.0045502568 -0.023475388 -0.022801042
0.016652044 -0.0047321836 -0.010430062 0.011317578 -0.022965316 -0.008481089 0.019941293 0.019029649
0.007833129 -0.009471033 -0.023520024 -0.004543294 0.0017594935 0.0056735165 0.014501975 0.008959699
0.020069767 -0.014297038 0.002997559 -0.006523885 0.0033350852 -0.010603623 -0.012827718 0.0173013
0.010233292 0.021279192 -0.015149341 -0.017812936 0.008373565 0.008177229 -0.015381538 -0.0082118865
0.0057326136 -0.003417501 -0.01130962 0.004871905 -0.024113892 -0.009817208 0.013996058 -0.008814171
-0.02129891 -0.016535196 0.0054221964 -0.018409511 0.002604185 -0.0046426314 -0.017657977 -0.0038499434
-0.0071472432 0.0204175 0.008071632 -0.01945813 -0.02119559 -0.018829897 -0.0015025635 0.01928187
-0.00298557 -0.006691947 -0.012292245 -0.0040559475 -0.013198421 -0.020649407 0.009717132 -0.023999458
-0.004124771 -0.007208432 -0.006533345 -0.008227342 -0.0078060455 -0.00034065987 -0.022606112 0.004236108
-0.0028353785 -0.023223905 -0.016063392 -0.013522453 -0.0008309651 0.016452225 0.007642813 -0.015819443
-0.01353441 -0.0058270404 -0.05128587 -0.041351162 -0.030301584 0.014043617 -0.0043707998 0.02198302
0.03206462 -0.0011561126 -0.004808787 -0.02939697 -0.019578466 -0.010370129 -0.0028337657 0.0123779485
-0.021675434 0.007989946 -0.037103653 -0.016545191 -0.019333128 -0.024244336 -0.031595085 0.012342502
-0.01824662 -0.0012072303 0.0084894225 0.010104402 -0.0052879276 -0.0036738445 -0.025617441 -0.02173555
-0.041807335 0.0067711445 -0.0067694886 0.002187819 -0.011439682 0.011407243 -0.028481841 -0.0032215544
0.0017653869 -0.029599257 -0.024394289 -0.025714321 -0.010123879 -0.023290263 -0.045873336 -0.00067312864
-0.015751192 -0.041925304 -0.02012352 -0.03369832 -0.0012819328 0.01370724 0.00052499014 -0.008070157
-0.022290152 -0.024606626 -0.016611049 -0.03968539 -0.03639061 -0.0031320688 -0.03138218 -0.03937986
-0.02108062 -0.036037136 0.013938489 0.017097661 0.0010437841 -0.014602313 -0.030294435 -0.035904706
-0.000681106 0.009534661 -0.005637066 -0.0048013027 0.0081413 0.008556735 -0.023342295 -0.026913635
-0.0019344939 -0.000846005 0.0050884034 -0.024753863 -0.021734 -0.005418169 -0.009183843 -0.027551062
00000000: 2ad5 a63c 17d6 aebc ec6a 8abc 7d9c e73b
00000010: 8fef 783c 5eb1 48bc 3543 ac3b 98bf 97bc
00000020: 0f3d b1bb 95db acbc 3b38 b23c 287a 8b3c
00000030: 48c6 84bc 10ec 003c 82d5 68bb d9ac 13bc
00000040: d16b 403c ee06 82bc 4a52 1bbc 8ae0 a5bc
00000050: 46c8 9c3c 857d 4e3c c11a 653c ff2a 7b3c
00000060: 2a31 c8bc 436b ba3b 21c6 9bbb e341 973b
00000070: 5534 82bc 172d f2ba 63c5 ad3b 6306 983b
00000080: b7da c6bc cc1b e73b 393d aabc 035b d9bc
00000090: 856f 5cbb f223 993c cc2e c7ba 9137 ac3c
000000a0: 3b81 8bbc 00d5 38bc 382a a3bc 9bf7 8abb
000000b0: 17fd 5ebc 63d0 a0bc ae30 ccbc 6a26 453c
000000c0: fcdb abbb 805e 433c dd83 cc3b 9eca 59bc
000000d0: d08b 113b e28f 4a3c 6948 ad3c af2d b63a
000000e0: 9138 6cbc 52eb d73b 096e 04bc fcef 87bc
000000f0: 18ef a4bb 1cdd 843c 8304 4c3b 301e 8739
00000100: 9475 bdbc 2c3f 82bb 9285 c53b 879a e4ba
00000110: 2bbc 13bc 1ae7 b4ba d33f 993c d447 14bc
00000120: 0f92 173b 8e85 b63c ae5d ba3b 8ea5 953c
00000130: 44e3 a9bc 3d2b 513c 80b1 943c d159 8c3c
00000140: 66f3 0b3c 39a4 873c 6ae5 2dbc ff8a 35bc
00000150: 0272 b13b 521a 953b 754f c0bc 40c9 babc
00000160: de69 883c 6f10 9bbb dae2 2abc 5d6d 393c
00000170: c221 bcbc 44f4 0abc ec5b a33c 11e4 9b3c
00000180: 8656 003c 642c 1bbc 11ad c0bc eadf 94bb
00000190: ce9e e63a e8e8 b93b b199 6d3c b4cb 123c
000001a0: 5a69 a43c 203e 6abc b272 443b 50c6 d5bb
000001b0: 7291 5a3b d2ba 2dbc 592b 52bc 75bb 8d3c
000001c0: 8aa9 273c b351 ae3c f134 78bc 6fec 91bc
000001d0: 4731 093c c9f9 053c d902 7cbc 268b 06bc
000001e0: a6d8 bb3b 27f8 5fbb fc4b 39bc 80a4 9f3b
000001f0: 7f8a c5bc 5bd8 20bc b94f 653c 5069 10bc
00000200: 0d7b aebc d274 87bc aeac b13b 8bcf 96bc
00000210: f9aa 2a3b 3721 98bb 76a7 90bc 554f 7cbb
00000220: 6c33 eabb 9a42 a73c e13e 043c a866 9fbc
00000230: 60a2 adbc 2841 9abc aaf1 c4ba 03f5 9d3c
00000240: 8ea9 43bb 1f48 dbbb 6a65 49bc c1e7 84bb
00000250: 313e 58bc f228 a9bc 9b34 1f3c 839a c4bc
00000260: 1629 87bb b634 ecbb ac15 d6bb f9cb 06bc
00000270: dbc9 ffbb 989a b2b9 7430 b9bc 0dcf 8a3b
00000280: c2d1 39bb 0f40 bebc 6097 83bc 478d 5dbc
00000290: 20d5 59ba d1c6 863c 9070 fa3b c797 81bc
000002a0: 6ebf 5dbc c2f0 bebb 2211 52bd d65f 29bd
000002b0: 073b f8bc 3317 663c ed38 8fbb bc15 b43c
000002c0: 3156 033d b488 97ba 0793 9dbb ead1 f0bc
000002d0: 0563 a0bc 79e7 29bc b3b6 39bb e1cc 4a3c
000002e0: ae90 b1bc 43e8 023c 00fa 17bd c889 87bc
000002f0: 8260 9ebc 0f9c c6bc d969 01bd 3538 4a3c
00000300: f079 95bc ed3b 9eba 3817 0b3c ef8c 253c
00000310: 5a46 adbb e2c4 70bb abdb d1bc c10e b2bc
00000320: 2b3e 2bbd 7ae0 dd3b 96d2 ddbb 8361 0f3b
00000330: 816d 3bbc 72e5 3a3c c052 e9bc b720 53bb
00000340: 8e64 e73a 247a f2bc 88d6 c7bc d7a6 d2bc
00000350: a0de 25bc 39cb bebc aee5 3bbd e674 30ba
00000360: a508 81bc deb9 2bbd 15da a4bc 4007 0abd
00000370: 8706 a8ba 5594 603c 7e9f 093a b138 04bc
00000380: d699 b6bc d693 c9bc e513 88bc 268d 22bd
00000390: 520e 15bd 6543 4dbb 9a8a 00bd c74c 21bd
000003a0: 44b1 acbc ad9b 13bd 435e 643c 6510 8c3c
000003b0: 95cf 883a 8a3e 6fbc 092c f8bc d010 13bd
000003c0: 408c 32ba 4437 1c3c 23b7 b8bb 3f54 9dbb
000003d0: 1663 053c 8c31 0c3c 5738 bfbc fc79 dcbc
000003e0: d88e fdba 6fc6 5dba 9fbc a63b 9dc8 cabc
000003f0: 800b b2bc e58a b1bb d477 16bc c4b2 e1bc

classifier.1.bias f4 [3]
-0.021536307 -0.018604834 -0.018221688
00000000: e96c b0bc 2a69 98bc a645 95bc
